networks/irisNetwork.pt (torch, 3184 bytes, 4 tensors)

fc1.weight f4 [32, 4]
000000 ad d2 17 bf c0 12 33 3f 34 b6 ac be b2 9c 11 bf
       -0.5930584 0.69950485 -0.3373276 -0.56879723
000010 8e 07 6e 3f 46 d3 15 bd 7c 90 84 bc 3c 84 c1 bd
       0.9298028 -0.03657844 -0.016182177 -0.0944905
000020 d8 b4 07 3f 37 6c 6f 3f 23 53 0d bf 68 6c 42 bf
       0.5301032 0.935245 -0.5520498 -0.75946665
000030 72 21 dd 3d 3a c1 a9 3e 83 9b 4d 3e d3 4e 1b bf
       0.10797395 0.33155233 0.20078854 -0.6066715
000040 f0 88 cb 3e 87 21 b9 be f4 fb 0d 3f a6 c2 81 3d
       0.39752913 -0.36158392 0.55462575 0.06335954
000050 b6 dd a2 3e 94 11 32 bf 21 f2 de 3e 38 66 84 3f
       0.31809777 -0.6955807 0.43544105 1.0343695
000060 69 cb d4 3e 19 ff a2 3d 4f c5 f3 3e b4 4e 6b 3f
       0.4156144 0.07958812 0.47611472 0.91916966
000070 58 41 14 3f d3 a0 5d bf ab d9 01 be 72 87 95 be
       0.57912207 -0.86573523 -0.1268069 -0.292049
000080 5c d7 d7 3c 27 c8 b0 be 80 f3 31 be c1 92 0f be
       0.026347809 -0.34527704 -0.17378044 -0.14020826
000090 8f fb 09 be 5d 29 89 3d 73 3b cc 3e 7f bd 71 be
       -0.13474868 0.066973425 0.39889106 -0.23607443
0000a0 d7 01 58 3e 48 1a 23 bb 4f f0 60 3e 12 13 f9 3c
       0.21094452 -0.002488749 0.2196667 0.030404601
0000b0 e0 b0 96 be 84 26 08 3f 9b e3 55 be 9e d5 95 3d
       -0.2943182 0.5318377 -0.20887606 0.07316135
0000c0 0e c2 3a 3e 6a b0 c9 3d f4 4d 9b 3c 8e 3f 3d 3e
       0.18238088 0.098481014 0.01895807 0.18481275
0000d0 66 8b 40 3f fc a2 12 bf 61 d8 3b 3f 2b 04 3e 3f
       0.75212705 -0.57279944 0.73377043 0.7422511
0000e0 8a f4 a5 3e 9a 65 b4 be b0 fc b4 3e 34 f9 9b 3f
       0.3241313 -0.35233766 0.35349035 1.2185426
0000f0 69 27 95 3d 23 f6 7d bd b5 0e c7 3e 49 a9 50 3f
       0.072829075 -0.062002312 0.38878408 0.8150831
000100 86 80 3a 3f 7b 4c 3b bf f8 d2 4b 3f 75 fb ac 3f
       0.7285236 -0.73163575 0.7961879 1.3514239
000110 0f 54 34 bf fe e6 83 3d 6b ad 90 be 4e 8c 12 bf
       -0.70440763 0.06440543 -0.28257307 -0.5724534
000120 a9 ab 60 be f9 22 bb 3d c9 7b f6 3e b1 f5 8d 3f
       -0.21940483 0.0913753 0.48141316 1.1090604
000130 b6 a0 e8 be 21 2a 11 3f 7c 64 4b bf dd aa 01 bf
       -0.45435113 0.5670491 -0.794502 -0.5065134
000140 06 5d 8a bf 54 48 8b 3f 72 87 e6 bf 21 ee 96 bf
       -1.0809639 1.0881448 -1.8010085 -1.1791421
000150 10 6f 96 3e a8 d3 5f 3e a0 b8 9e be 64 c8 c5 be
       0.2938161 0.21858084 -0.31000233 -0.38629448
000160 fd 14 27 bf dc 9a 08 3f db 74 0c bf c9 2e 33 3e
       -0.652664 0.53361297 -0.5486581 0.17498316
000170 da f8 af 3d fa 0f 1e be 0d c8 15 bd 2b eb 54 3f
       0.085923865 -0.15435782 -0.036567736 0.8317134
000180 3f b4 ca be 7b ab 84 3e da a6 21 3e 04 bf 26 be
       -0.39590642 0.2591208 0.15786305 -0.16283804
000190 22 66 aa be cf d2 9e be 11 92 6c 3f 11 bd 0a 3f
       -0.33281046 -0.3102021 0.9241038 0.5419474
0001a0 36 75 49 3f d6 42 25 bf ca 99 46 be e1 09 70 3d
       0.78694475 -0.6455511 -0.19394603 0.05860317
0001b0 46 e1 ec 3e c1 8e 9b be e1 ce 2d 3f 3d 71 34 3e
       0.4626562 -0.3038235 0.678938 0.17621322
0001c0 f8 92 8d 3e dd 58 90 3e d3 10 3b 3f ce 0b 80 3f
       0.2765119 0.28192797 0.73072547 1.0003603
0001d0 25 9f d1 bd 81 ac 81 3f f3 e4 80 bf 97 7b 3e be
       -0.102354325 1.0130769 -1.006987 -0.18601833
0001e0 fd 30 c0 3e 85 f6 42 3e fa 3c af 3e 73 99 2f 3f
       0.37537375 0.19039352 0.3422621 0.6859352
0001f0 80 49 6c be d9 36 93 be fb 39 35 3f e8 2c 38 3f
       -0.23074913 -0.28752783 0.70791596 0.7194352

fc1.bias f4 [32]
000000 79 30 d2 3e cc 9a 1f 3f 35 bd 7b 3f f7 9a 7c 3f
       0.41052607 0.62345576 0.9833558 0.9867396
000010 73 54 b0 be 67 f9 50 3e 7b 37 56 bf 45 6a 10 3f
       -0.3443943 0.2040764 -0.83678406 0.56412154
000020 25 0e 13 3e 04 05 8f be 5b 36 cc 3e 04 0f e7 bd
       0.14360864 -0.27933514 0.3988522 -0.11282161
000030 f4 8c 33 3d 4e 80 18 3f 9e a9 1c bf c7 42 98 be
       0.043835595 0.5957078 -0.61196315 -0.29738447
000040 06 7f ad 3e 86 94 c2 bb 25 ef 03 bf 63 7d 1b 3f
       0.33885974 -0.0059381155 -0.5153678 0.607382
000050 32 33 96 3f 0d c8 91 3f 0d 14 b8 be 63 4b 1f bb
       1.1734374 1.1389176 -0.35952798 -0.0024306409
000060 ba 8c 4f be be a4 d7 be 7c e2 16 3f cf bc f8 be
       -0.20268527 -0.42117876 0.5893934 -0.4858155
000070 fe f8 40 bf 46 ed 94 3f 08 14 36 bf a2 87 e5 be
       -0.7537993 1.163491 -0.71124315 -0.44830042

fc2.weight f4 [3, 32]
000000 a3 c5 0f 3f 46 cb 5d c0 97 2f 48 3f ce 9f cb 3e
       0.56160945 -3.4655318 0.78197616 0.3977036
000010 34 6e 0a bf 99 0a 1e bf bb 14 70 bf 48 68 55 be
       -0.54074407 -0.6173492 -0.9378163 -0.20840561
000020 b5 a2 f3 bc fa b3 a1 bc 13 89 bb bd f8 9f 71 3e
       -0.02974067 -0.01973914 -0.09157004 0.2359618
000030 d3 bf 91 bd 73 bb 20 bf a5 23 61 c0 88 b7 90 be
       -0.07116666 -0.62786025 -3.5178006 -0.28265023
000040 04 1b be bf b8 54 c0 3d ff 19 04 bf 0f 53 10 3f
       -1.4851995 0.09391159 -0.51602167 0.5637674
000050 8f 6c e1 3f 08 0a e5 3e b8 7b db bc 36 2c fe bd
       1.7611254 0.44734216 -0.026792392 -0.12410776
000060 3d ab 57 bd 31 67 ca be 3e 4d c5 c0 9f 26 99 be
       -0.05265354 -0.39531854 -6.165679 -0.29912278
000070 05 4d 13 bf e8 fb 9d 40 d0 c4 2d be 49 15 dc be
       -0.575394 4.9370003 -0.1696961 -0.4298499
000080 3f 82 d8 be 2c fc b2 bc 03 ed e5 3e ea 63 dd 3e
       -0.4228687 -0.02184876 0.44907388 0.4324029
000090 15 b0 ba be fe 93 ad be 2a 42 6a bf 81 b8 0a 3f
       -0.36462465 -0.33901972 -0.9150721 0.5418778
0000a0 83 6e c3 3d a9 b3 6e 3d 4a 7a ea 3d aa 88 e6 be
       0.09542563 0.058276806 0.11449106 -0.4502614
0000b0 9c 44 0f 3e 00 dc 07 3f 81 dc b0 bf 6c b6 ac be
       0.13991016 0.5307007 -1.3817292 -0.33732927
0000c0 1a 81 cb 3e 25 bf 4d bc 46 66 a8 bf 99 17 20 bf
       0.39746934 -0.012557779 -1.3156211 -0.6253601
0000d0 77 b7 6f c0 eb 99 0e 3f 1a 57 ba bd 31 5f 09 bd
       -3.7455728 0.5570361 -0.090986446 -0.033538047
0000e0 c2 10 61 bc af f5 5c bf 60 8e 1b 3f 86 ac 1e bf
       -0.0137369055 -0.86312383 0.6076412 -0.61982
0000f0 57 44 17 bf 86 61 5a 3e 43 b6 94 bf 4c 84 90 bf
       -0.59088653 0.21326265 -1.1618122 -1.1290374
000100 4e 28 3b be 1e db 2b 3b 9c 39 8f bf 47 f3 b7 be
       -0.18277094 0.0026223133 -1.1189456 -0.35927793
000110 09 f1 d3 3c 90 c7 8e 3f dc a7 3e 3f 58 96 59 bf
       0.02587177 1.1154652 0.74474883 -0.8499503
000120 5a bc 90 bd ba b3 50 3d c7 15 c5 3e ae 2d b7 bb
       -0.07067175 0.05095265 0.38493177 -0.0055901622
000130 8c f5 11 bd b4 8d a5 3e ae fb b3 3f 0a d3 24 3f
       -0.035634562 0.32334673 1.4061182 0.6438452
000140 00 e1 9c 3e 5f db 15 bd 1c a2 93 3f 70 e3 59 be
       0.3064041 -0.03658616 1.1533847 -0.21278167
000150 a0 65 25 c0 87 16 f8 be 27 6c 59 bd e0 7b ce 3e
       -2.5843277 -0.48454687 -0.053081658 0.40328884
000160 5c 88 d6 bd 35 e0 63 3f 40 d4 4f bf e8 8c ae 3e
       -0.10475227 0.8901399 -0.8118324 0.34091878
000170 d5 8f 8c 3f 16 b5 1b c0 da 9b 51 3f 4b 79 6d 3f
       1.0981394 -2.4329276 0.81878436 0.92763203

fc2.bias f4 [3]
000000 0c df a1 3e 7b 69 44 3e a6 57 bb 3d
       0.31615484 0.19180863 0.09147577
