networks/irisNetwork.pt (torch, 2672 bytes, 4 tensors)

fc1.weight f4 [16, 4]
000000 5a a7 02 bf a2 44 8d be 9d 1b 9f be b1 20 13 bf
       -0.5103661 -0.27591425 -0.31075755 -0.5747176
000010 f3 39 a2 be dc 97 d9 bd fb cf 1c bf 66 05 15 bf
       -0.31684837 -0.10624668 -0.61254853 -0.5821136
000020 43 f6 c2 3e a7 17 99 3e e4 ed 98 be b8 7e a4 be
       0.38078508 0.29900858 -0.29868996 -0.3212793
000030 c4 ae f0 be 6c 7b dc bd f2 e1 2a be 1e 6f c2 bd
       -0.47008336 -0.10765728 -0.16687754 -0.0949385
000040 db 86 fb bd 83 b4 26 be 92 39 8c be 9f c1 47 be
       -0.12281581 -0.16279797 -0.27387673 -0.19507454
000050 28 c5 82 3c 76 b1 4f bd 1e 69 ad be 49 28 fd bd
       0.015963152 -0.05070635 -0.3386926 -0.123611994
000060 67 e0 2b 3e 9c b3 21 3e 02 5d ab be a0 a3 97 be
       0.16784821 0.15791172 -0.33469397 -0.29617023
000070 c1 d9 d9 be ed 9c 3e 3f e9 6f 4f bd fa b8 10 bf
       -0.42548946 0.744582 -0.050643835 -0.5653225
000080 e5 4d 75 3e f9 3f 07 be a6 bf 9e 3c c3 1a 5e 3d
       0.23955496 -0.13207997 0.019378494 0.05422474
000090 53 e9 53 be 88 f1 3b 3f b9 0e 46 bf f6 72 27 bf
       -0.20694475 0.7341542 -0.77366215 -0.6540979
0000a0 e6 a1 0b 3e 31 85 8a be ad 9a 93 3f 92 4b 0d 3f
       0.13635978 -0.27054742 1.1531578 0.55193436
0000b0 37 d3 67 bd 37 55 16 3f c5 e4 27 3e 9c 56 c0 3e
       -0.056597915 0.5872378 0.16395862 0.37566078
0000c0 22 48 84 3d 19 80 d8 3d 0c 31 07 bf 39 90 f5 be
       0.06459071 0.10571308 -0.52809215 -0.47961596
0000d0 77 6c c1 3e b5 45 e4 3e 29 0c 2e 3f 5e 78 cb 3e
       0.37778065 0.44584432 0.67987305 0.3974027
0000e0 75 d0 df be af 01 18 bf 4c 7a 27 be 28 62 b5 bd
       -0.43713728 -0.5937757 -0.16355246 -0.088566124
0000f0 25 84 5f 3f 6c 5a ce be 65 1e b9 3e 54 00 14 3f
       0.8731101 -0.4030336 0.36156002 0.57813

fc1.bias f4 [16]
000000 1b f7 64 be 65 68 5f 3b de df cf be d0 5c 89 be
       -0.22359888 0.0034089324 -0.40600485 -0.26828623
000010 af 7d d5 be 7a af 9a be 76 84 e1 3e c7 0a 15 3f
       -0.4169745 -0.30212003 0.44046372 0.5821957
000020 4f a7 0b 3f 2f 09 09 3f cf be 39 3e c3 b5 56 3d
       0.5455217 0.5352964 0.18139194 0.052419435
000030 91 04 74 3f 61 85 14 bf fe 88 f0 3d 9b ba 9b 3e
       0.9531947 -0.5801602 0.11744879 0.30415806

fc2.weight f4 [3, 16]
000000 90 8d c8 bd 10 b2 60 3e 28 42 ce bd 24 ec 8a 3d
       -0.09792626 0.21942925 -0.10071212 0.067833215
000010 0a 3a 38 3e 78 4e 66 be 64 86 9e 3d 25 7b ab 3e
       0.1799089 -0.22490871 0.07740477 0.3349239
000020 0b d9 89 3e 56 95 20 3f 49 5a 59 bf d1 ba 05 3e
       0.26923403 0.6272787 -0.8490339 0.13059546
000030 6d 0a 39 3f f9 f6 45 bf 93 29 b8 bd 93 44 cb be
       0.72281533 -0.77329975 -0.08992305 -0.39700755
000040 ee ef 35 be c0 32 af bb 95 e9 99 be 04 44 dd bd
       -0.17767307 -0.005346626 -0.3006102 -0.108039886
000050 2a 1a 2c 3e 08 f0 2e bd 5e 6e 6d 3e d7 19 71 3c
       0.16806856 -0.04270938 0.23186633 0.014715633
000060 65 37 f7 3d be bd 86 bf fc a5 ca 3e 12 e2 02 be
       0.120711125 -1.0526655 0.3957976 -0.12781551
000070 ea a7 be 3e 85 ff 31 bf 5f 6a 0e 3e 10 48 b2 3e
       0.37237483 -0.69530517 0.13907765 0.34820604
000080 78 f3 63 bd a4 37 bb 3d 63 c1 bf bd 8c 27 79 be
       -0.05565211 0.09141472 -0.093630575 -0.24331492
000090 e6 26 30 3e 92 10 76 be 4b 5d 07 bf c6 a8 3c bf
       0.17202339 -0.24029759 -0.5287673 -0.7369503
0000a0 a3 fe 07 3e 5d c9 1a bf 24 93 bc 3e 53 e6 3c 3e
       0.1328073 -0.60463506 0.3683101 0.18447237
0000b0 04 27 53 bf 61 9d 03 3f ea 13 77 3d d9 e3 b4 3e
       -0.8248141 0.51412016 0.060321726 0.35330084

fc2.bias f4 [3]
000000 37 9a f0 3d d9 8a 20 3e 37 0b 38 3e
       0.11748164 0.15677966 0.17973028
