networks/wdbcNetwork.pt (torch, 3824 bytes, 4 tensors)

fc1.weight f4 [32, 10]
000000 92 94 2f 3e 8b 6f 37 3f cf 80 4d 3e 12 13 ec 3e
       0.17146519 0.71654576 0.20068668 0.461083
000010 33 44 b6 3e 5f 5d 23 3f a4 f9 e7 3e 3e e7 93 3f
       0.35598907 0.6381435 0.45307648 1.1554945
000020 b6 1f 59 3e 7e 32 0f bf 69 64 89 be 1d cb e2 3e
       0.21203503 -0.5593642 -0.2683442 0.44295588
000030 f6 75 82 bd 39 24 ce 3e 36 0d ba 3e 42 53 df 3d
       -0.063701555 0.4026201 0.36338204 0.10904552
000040 2e ee 3a 3e 11 10 0f 3f 73 3e 29 be a0 da 1c bf
       0.18254921 0.5588389 -0.16527729 -0.61271095
000050 0f 5e 04 3f b4 c9 e3 bf cf 35 5c 3e 80 63 cc 3e
       0.5170602 -1.779593 0.21504901 0.39919662
000060 3d 01 07 bf 6c 39 20 bc 5c 4a 1c 3f 14 a6 03 bf
       -0.52736264 -0.009779315 0.61050963 -0.5142529
000070 c9 5c 25 bf a0 e5 15 3f 52 69 16 3f 84 e5 5b 3f
       -0.64594704 0.58553505 0.58754456 0.8589709
000080 59 70 2b 3f f0 60 ba 3e a5 c5 75 3f 2b ea dd 3d
       0.66968304 0.36402082 0.96004707 0.108356796
000090 7b d4 c1 3e 57 ba 68 3f 4d c4 e3 3e 9e cd 04 bf
       0.37857422 0.9090933 0.44485703 -0.51876247
0000a0 80 ec 98 3e 60 87 8f 3d 7e 3b 63 be ad 10 c2 be
       0.29867935 0.070082426 -0.22190663 -0.37903348
0000b0 bb 2f 1e be 11 63 e2 be e1 c3 cf be 4b 9b 26 bf
       -0.15447895 -0.44216207 -0.4057913 -0.6508071
0000c0 27 97 7d be 42 50 0e 3f 41 bd ef 3e f5 39 66 3f
       -0.24764691 0.55591214 0.46824077 0.89932185
0000d0 10 11 b5 3d 81 6d 64 3f f1 56 f1 3e b3 b8 19 3e
       0.08841145 0.8922959 0.47136644 0.15011863
0000e0 4b 3a 05 3f 9f 98 b6 3f 6a c0 a5 3d 67 c2 65 be
       0.52042073 1.4265326 0.08093341 -0.2243744
0000f0 56 c8 96 3c db 2b 10 3f d7 13 5c 3c 4a a5 36 3f
       0.018406074 0.5631692 0.013432465 0.7134596
000100 14 d6 c5 3e 38 e0 a8 3b 67 57 fb 3e 48 21 88 3f
       0.3863989 0.005153682 0.4909012 1.0635157
000110 72 84 f1 3d c8 f7 93 bf d5 ac a6 3e b2 c6 bb bf
       0.1179284 -1.1559992 0.32553735 -1.4670012
000120 13 cc ec 3e a9 15 a3 3e 19 5b ff be c4 e3 d3 3e
       0.46249446 0.31852463 -0.4987419 0.4138471
000130 19 5a 08 3f f3 a3 e9 3d 77 41 8a bf c6 aa c5 3e
       0.5326248 0.11408224 -1.0801228 0.38606852
000140 73 fa b6 3c c0 9b 4a 3f 05 13 29 3e 8a 48 14 3f
       0.02233622 0.79143906 0.16511162 0.57923186
000150 1c e6 09 3f 62 b0 51 3e 9c 84 76 3e 37 0a 7c 3f
       0.53866744 0.20477441 0.24074024 0.98453087
000160 8f 74 83 be f0 2d 80 bf 72 fe 4b 3e 3c 27 bf be
       -0.25674865 -1.0014019 0.19921282 -0.3733462
000170 1a 5b 9b 3e d7 11 cb be ac 82 52 bd 0f 68 62 be
       0.30342942 -0.39662048 -0.05139415 -0.22110008
000180 0b 4d 13 bf bc 1a 64 bf 70 2c c6 bd 11 1f 7d 3f
       -0.57539433 -0.89103293 -0.096764445 0.9887553
000190 68 e2 f3 3e b7 98 9a 3f 1f 4f ab 3e d2 3f 14 3f
       0.47633672 1.2077855 0.33458802 0.5790988
0001a0 b0 ce ae 3e 58 e1 dd 3e 1c 42 49 3f 95 8a 55 3f
       0.34142065 0.43335986 0.786165 0.83414584
0001b0 b5 7c 1c 3d e8 f4 eb be d2 19 5c bd f1 00 9c 3f
       0.038204867 -0.46085286 -0.05373556 1.2187787
0001c0 a2 64 d2 be eb 06 40 be 97 dd d0 bf f2 38 30 3f
       -0.41092402 -0.18752639 -1.6317624 0.6883689
0001d0 ba 71 1d be 98 cf 52 bf fe d2 2d bf 83 ac 24 3f
       -0.15375414 -0.8234801 -0.67900074 0.6432573
0001e0 1f 27 0b be 84 bc 42 3f 95 82 02 be 28 98 28 3f
       -0.13589142 0.760689 -0.12745126 0.6585717
0001f0 2b c8 17 3f 74 32 8e 3d 16 7e e0 3d 91 8b 88 3f
       0.5928981 0.06943217 0.10961549 1.0667592
000200 f8 83 6b 3d 49 1f 97 be 37 4a b6 3e 5e 2a 46 3f
       0.057498902 -0.29516056 0.35603496 0.774084
000210 4b 4a 0f 3e d4 ee 38 3f 32 1d 30 3f b8 14 d6 3d
       0.13993184 0.7223942 0.6879455 0.104531705
000220 fb 0c e9 3e 35 8f 52 3f 04 4c 9e 3e 2b eb 51 bf
       0.45517716 0.82249767 0.3091737 -0.8199946
000230 03 ce cb bc 8f d1 f5 bd 26 65 72 3e cd 32 05 be
       -0.024878507 -0.12002861 0.23671398 -0.1300766
000240 ff 08 29 bd 0d 7f 9a be ad c6 b3 be ae 82 20 bf
       -0.041268345 -0.30175057 -0.35112515 -0.626994
000250 2b 7e 9d be 35 bd f8 3e 19 7a 91 be 93 8d c3 3e
       -0.3076032 0.48581854 -0.28413466 0.3819395
000260 cf 8c 93 be db 2d a6 be 31 81 fc be 71 0d 9a be
       -0.28818366 -0.3245686 -0.49317315 -0.3008838
000270 a7 d7 10 bf 40 74 5d bf d1 7a e4 be 36 84 9c 3e
       -0.5657906 -0.8650551 -0.4462495 0.3056962
000280 93 d4 ad 3d 0e 8c 20 3f 93 2b 21 3e db b2 dc 3e
       0.08487811 0.62713706 0.15739278 0.43105206
000290 84 02 de 3e a3 bd a2 3e 34 15 1a 3f 55 12 3b 3f
       0.43361294 0.31785306 0.60188603 0.7307485
0002a0 da 0b 52 3e b2 1c 6a be bd a7 fc 3e e1 d6 e5 be
       0.20512334 -0.22862509 0.49346724 -0.44890502
0002b0 6d 52 1b bd 00 5f 8d be 52 78 c3 be 97 a5 d9 bc
       -0.037920404 -0.27611542 -0.38177735 -0.026568217
0002c0 2b d7 0d bf d7 c4 8d bf ab 1d 32 be ba 32 60 3f
       -0.55406445 -1.1075696 -0.1739413 0.875774
0002d0 10 93 d4 3e 8d 6c 35 3f 77 c3 0a 3f 9d 3e a2 3f
       0.4151845 0.7086876 0.54204506 1.2675358
0002e0 2a 93 90 3e 90 63 9a 3d c1 20 f2 3e 3a 87 78 3f
       0.28237277 0.07538521 0.47290614 0.9708134
0002f0 6c 48 e0 3e c6 cc 91 bf d1 bb 30 be 6b e9 de be
       0.43805254 -1.1390617 -0.17259146 -0.4353746
000300 25 ca 87 bd 41 13 0a be 2a 16 14 3e f2 a9 16 be
       -0.06630353 -0.13483907 0.1446158 -0.14713266
000310 26 d5 10 3e 9d 69 bb 3e e7 a3 83 be 0d ea a9 bd
       0.1414381 0.36604014 -0.25710985 -0.08296595
000320 b8 a6 c2 3d 47 5d 6a 3f 5c db f6 3e c9 a7 3a 3f
       0.09504455 0.9154858 0.48214233 0.7291227
000330 63 7a 21 3f de 56 89 3e a1 42 16 3f bd 70 96 3f
       0.6307737 0.26824087 0.5869542 1.1753155
000340 03 f9 ee bc da 23 42 bf f9 b2 2a 3e d0 be a5 bd
       -0.029171472 -0.75835955 0.16669835 -0.08093035
000350 2f 8d ea bc 3b b6 b1 be 21 e2 dc 3e d5 e6 11 bf
       -0.028631775 -0.34709343 0.43141273 -0.56992847
000360 5e 2e d0 bf 87 85 1a bf db 01 04 3f cf a7 a1 3d
       -1.626415 -0.60359997 0.5156533 0.07893335
000370 e9 eb ab 3d ed 3b 35 bf 65 0a 4a 3d 26 3d 02 be
       0.08394606 -0.70794564 0.04932632 -0.12718639
000380 6e e4 d1 be 06 e6 9e 3e dc c6 84 be 23 7f 7c bf
       -0.4099459 0.3103487 -0.25932968 -0.98631495
000390 87 45 03 3f b9 ea 1b 3f b4 cc 92 3d db c0 b0 3d
       0.51277965 0.60905033 0.0716795 0.08630534
0003a0 71 5e 87 3d b8 b3 b6 3d 03 ec 53 3b fb 0d b9 3e
       0.0660981 0.089209974 0.003233672 0.3614348
0003b0 48 e1 37 3d a2 18 cd 3e f2 33 bd 3e 36 f3 bf bd
       0.04489258 0.40057856 0.36953694 -0.09372561
0003c0 32 3a 01 3e e8 b5 49 3f 4c de d5 bd 83 75 b7 3e
       0.12619856 0.7879319 -0.104427904 0.35831842
0003d0 0f 52 18 3f 09 17 c8 3e 7c 59 50 3d 60 62 9b 3f
       0.5950021 0.39080074 0.05086659 1.2139397
0003e0 d9 08 72 3e 5a 92 b1 be 4e ee 9c 3e c4 da 53 3e
       0.23636188 -0.3468197 0.30650562 0.20688921
0003f0 e9 87 a2 3e 9b d7 b7 3d 4c 0e 36 bd 05 a1 20 be
       0.31744316 0.0897667 -0.04444723 -0.15686424

fc1.bias f4 [32]
000000 06 a0 20 bf 17 5b 1f be 28 4c 32 3f 9c cb 31 bf
       -0.62744176 -0.15562092 0.69647455 -0.6945131
000010 4c 05 68 3f 18 aa 46 bf b3 61 40 bf 47 01 ef 3e
       0.9063308 -0.7760329 -0.7514908 0.46680662
000020 4e ef b1 be 19 aa 87 3f b9 35 07 bf 70 ed 40 3f
       -0.34752887 1.0598785 -0.5281635 0.753623
000030 28 11 12 bf 00 2a 2a bf 97 a8 6a 3f 0b 7f 0a 3e
       -0.5705743 -0.66470337 0.916635 0.13525026
000040 50 0d 19 bf e7 ec a2 3f d7 ff 68 bf 67 a8 8b be
       -0.5978594 1.2728547 -0.9101538 -0.27276918
000050 eb da 11 bf 62 a0 41 3f 94 9d 62 3f 72 31 05 bf
       -0.5697467 0.7563535 0.88521695 -0.5202857
000060 89 3d 2c bf 28 10 79 be 14 36 9a 3f dd c4 ee be
       -0.67281395 -0.2432257 1.2047753 -0.4663457
000070 53 e4 10 3f 8f ab 34 3f d6 c1 3c 3f d8 0c 2f be
       0.56598395 0.7057428 0.7373327 -0.17094743

fc2.weight f4 [2, 32]
000000 98 95 63 3f ac fc 80 3e 6e 1c 0e c0 21 6d 9b 3f
       0.88900137 0.25192773 -2.2204852 1.2142678
000010 9e e0 3b be 1e 17 b2 3f aa 14 59 41 b0 96 ef bf
       -0.18347403 1.3913305 13.567545 -1.8717861
000020 fb c6 5a 3f b4 8c 22 bf d0 52 5a 3f d7 fc 81 bf
       0.8545987 -0.63495946 0.8528261 -1.0155286
000030 eb ca 69 3f c0 64 79 3f 3c 6f 96 be f7 29 bf be
       0.91325253 0.9741936 -0.2938174 -0.37336704
000040 47 2e fd 3e 62 21 6b bf 31 02 c1 3f a4 16 06 be
       0.4944937 -0.91847813 1.5078794 -0.13094574
000050 a4 fe 8d 3f 3b a8 20 bf 1b 48 5c bf b3 32 6c 3d
       1.1093335 -0.627567 -0.86047524 0.057665538
000060 c6 a3 81 3f b8 29 e2 bc 3c fa 8b bf 32 52 5e 3f
       1.0128105 -0.027607784 -1.093574 0.8684417
000070 52 c5 96 be 04 42 43 bf d5 a8 f9 be 01 ed 18 be
       -0.29447418 -0.76272607 -0.4876162 -0.1493416
000080 8f 55 5e bf 37 a1 50 3d 5c 20 ce 3f ad ce aa bf
       -0.868493 0.050934996 1.6103625 -1.3344322
000090 a4 28 e2 3e 87 1f a8 bf c3 0f 44 c1 93 73 6a 3f
       0.4417163 -1.3134621 -12.253848 0.915826
0000a0 13 ce 39 be 9e 3b 4b 3f af f6 30 bf f6 01 09 40
       -0.18145017 0.79387844 -0.6912641 2.1407447
0000b0 0a 54 a5 be 57 99 55 bf 6d 25 01 3f 45 1c 4d 3d
       -0.3229068 -0.83437103 0.5044773 0.050075788
0000c0 f0 37 10 bf 5d 0c 95 3f 0d 9e 0b c0 84 1d 84 bd
       -0.56335354 1.1644398 -2.1815217 -0.06450942
0000d0 48 0a 35 bf 67 cc 9f 3f 69 15 c9 3e 3a 60 50 be
       -0.7071881 1.2484254 0.39274147 -0.20349208
0000e0 b8 c4 64 bf 97 49 76 be 8a cc 6e 3f 5f 90 3e bf
       -0.8936267 -0.2405151 0.9328085 -0.7443904
0000f0 0c 0c 61 3e 44 e8 15 3f 11 df a9 3f 3d 85 31 3e
       0.21977252 0.58557534 1.32712 0.17335983

fc2.bias f4 [2]
000000 95 5a 08 3d 00 2a 7c 3f
       0.03328951 0.98501587
