networks/wdbcNetwork.pt (torch, 8560 bytes, 6 tensors)

fc1.weight f4 [32, 10]
0.30965224 0.32923397 0.20703696 -0.015659785 0.17745622 0.020264504 0.34057173 0.10685251
0.24051557 0.21338728 0.23484802 -0.12791848 -0.007960713 -0.05486939 -0.04755083 -0.26863292
-0.14771014 -0.38290706 -0.20773917 0.22130139 -0.059735823 -0.0748269 -0.34697825 0.19896343
-0.077544376 0.04622171 -0.24586056 0.25352877 -0.34229752 -0.36277953 -0.09774196 -0.29951236
-0.19350585 -0.0037011795 -0.29338455 0.10386441 0.02527542 0.02800305 0.15666641 0.052787706
-0.30909157 -0.22866333 0.09732609 -0.29647723 -0.109021656 -0.10728697 0.047962375 -0.10121546
-0.30497578 -0.22656015 -0.019270325 -0.1514365 -0.23518148 0.11949183 0.28378785 0.17579742
0.061735302 -0.30976102 -0.15759905 -0.17477344 -0.11519244 -0.15949658 0.24474302 0.24260741
0.37239543 -0.025897807 0.026144033 0.14658746 0.36920035 0.25483227 0.06424974 0.10487163
0.19415048 0.26134002 0.18903472 -0.10921396 0.08939315 0.20471515 -0.22201863 -0.010465333
0.19032866 -0.111631274 -0.12239535 0.17422654 -0.17064162 0.2754024 0.40939215 0.50858957
0.2995498 -0.16491069 -0.070056766 0.13327914 -0.005167585 0.1438351 -0.12673274 0.20792486
0.31759423 0.4529456 -0.11518248 -0.08626204 -0.25126293 -0.16745943 -0.13160762 -0.18185323
-0.33479637 -0.17379794 -0.28031066 -0.33937645 -0.3025425 0.11232555 -0.00679283 0.16390385
-0.0438006 0.08745935 0.2377048 0.018190542 -0.29635233 -0.4830593 0.25381288 0.21776754
0.37350145 0.18169194 -0.08668229 0.18211657 -0.013472493 -0.043109342 -0.21768281 -0.09577357
-0.13694447 0.09319665 0.45997417 0.32461923 -0.16054487 0.2892938 0.35864258 0.015917862
0.42339945 -0.12353124 0.009060976 -0.24051583 -0.25680006 0.07704146 0.08882188 -0.34579414
0.2503031 0.11851134 0.18179463 -0.2801562 -0.14635006 0.12084693 0.051710658 0.29119465
-0.057533063 0.37128443 -0.008287556 0.1617084 0.15353125 0.367026 0.2932724 -0.11733865
0.09117965 -0.22164497 -0.31576687 -0.080637984 0.103103265 -0.25054666 0.12211523 -0.07039211
0.12430702 -0.17019194 0.20176965 0.34508067 0.31553486 -0.122735724 -0.007751558 0.18137802
0.2559199 -0.020834884 -0.19857657 -0.047446042 0.26517805 0.34709117 -0.23492399 -0.0010073805
-0.17487943 0.2709796 -0.19308145 0.01802694 0.07663568 -0.0149060795 0.016105767 -0.026516542
-0.024840634 -0.2632965 0.15679587 0.23574248 -0.19673619 -0.019795872 -0.007633004 -0.11218943
-0.046283625 0.34905046 0.31031772 0.30640972 -0.08752566 0.4087749 0.033640373 0.44969603
-0.09294832 -0.023069015 -0.19881713 0.01823855 0.05943429 0.2251871 -0.06857259 -0.27030352
0.051500294 -0.24590094 -0.36545882 0.09126845 0.09258478 -0.22173238 0.25979742 -0.24713263
0.14813328 -0.34748924 -0.22693385 -0.26713857 0.16847941 -0.12311036 -0.03243398 -0.07584297
-0.14013888 -0.20920865 0.29644364 -0.3103464 -0.21987112 0.117488936 0.19772847 0.06961705
-0.08362724 -0.16707487 -0.04665635 -0.19080988 0.08182522 -0.2856288 0.030666161 -0.20269954
0.33291 0.25610527 -0.0069509484 0.2004111 0.14493327 0.13673739 -0.09042612 -0.18307135
00000000: bd8a 9e3e 5b91 a83e 7f01 543e f348 80bc
00000010: 15b7 353e bf01 a63c 6b5f ae3e 7dd5 da3d
00000020: b749 763e 3282 5a3e 007c 703e 10fd 02be
00000030: a66d 02bc babe 60bd a9c4 42bd 418a 89be
00000040: 5441 17be 650c c4be 94b9 54be d59c 623e
00000050: 8dad 74bd d93e 99bd 22a7 b1be 12bd 4b3e
00000060: 96cf 9ebd fa52 3d3d dfc2 7bbe 86ce 813e
00000070: 9f41 afbe 3dbe b9be f02c c8bd af59 99be
00000080: 6626 46be 7d8f 72bb 8036 96be ddb6 d43d
00000090: 660e cf3c a766 e53c 296d 203e ec37 583d
000000a0: 4041 9ebe b826 6abe e752 c73d ddcb 97be
000000b0: bf46 dfbd 45b9 dbbd 3274 443d 0d4a cfbd
000000c0: c925 9cbe 62ff 67be cddc 9dbc 2b12 1bbe
000000d0: 6ad3 70be 22b8 f43d a44c 913e 3d04 343e
000000e0: 28de 7c3d ff98 9ebe a561 21be cff7 32be
000000f0: 04ea ebbd 1253 23be ea9d 7a3e 146e 783e
00000100: 9daa be3e a327 d4bc 032c d63c 061b 163e
00000110: d407 bd3e 6079 823e 5e95 833d f0c6 d63d
00000120: 62cf 463e 5cce 853e 5192 413e 92ab dfbd
00000130: c113 b73d d9a0 513e da58 63be ca76 2bbc
00000140: 84e5 423e f09e e4bd 6aaa fabd 7168 323e
00000150: adbc 2ebe 8b01 8d3e d99b d13e ed32 023f
00000160: 975e 993e 59de 28be ec79 8fbd 547a 083e
00000170: d854 a9bb 8249 133e 3ac6 01be 41ea 543e
00000180: b69b a23e 7ce8 e73e cbe4 ebbd 27aa b0bd
00000190: 89a5 80be 7c7a 2bbe 26c4 06be bc37 3abe
000001a0: 6e6a abbe 16f8 31be e184 8fbe c0c2 adbe
000001b0: dae6 9abe f00a e63d 6396 debb 69d6 273e
000001c0: 4268 33bd e31d b33d e368 733e 5504 953c
000001d0: 7ebb 97be 8c53 f7be c3f3 813e 74fe 5e3e
000001e0: 953b bf3e 740d 3a3e 7c86 b1bd c47c 3a3e
000001f0: bbbb 5cbc 6c93 30bd 3ee8 5ebe ef24 c4bd
00000200: 2c3b 0cbe e3dd be3d bc81 eb3e 7e34 a63e
00000210: e065 24be 511e 943e 00a0 b73e 2d66 823c
00000220: d0c7 d83e f2fd fcbd 7d74 143c c849 76be
00000230: 4c7b 83be eac7 9d3d 3fe8 b53d ee0b b1be
00000240: ba27 803e 13b6 f23d 5f28 3a3e a270 8fbe
00000250: cadc 15be 987e f73d 8ece 533d 7717 953e
00000260: caa7 6bbd fe18 be3e 87c8 07bc e396 253e
00000270: 4c37 1d3e d5ea bb3e cd27 963e 3f4f f0bd
00000280: 65bc ba3d e6f6 62be 32ac a1be 8725 a5bd
00000290: ce27 d33d a747 80be 8d17 fa3d bd29 90bd
000002a0: ae94 fe3d cc46 2ebe b49c 4e3e 6aae b03e
000002b0: c98d a13e de5c fbbd c800 febb 29bb 393e
000002c0: ef07 833e ebad aabc a857 4bbe c856 42bd
000002d0: 6bc5 873e efb5 b13e ea8f 70be 150a 84ba
000002e0: 9813 33be d7bd 8a3e 25b7 45be 3cad 933c
000002f0: 2bf3 9c3d a138 74bc 3ef0 833c 3839 d9bc
00000300: 967e cbbc cdce 86be 198f 203e 7a66 713e
00000310: 3675 49be f42a a2bc 471e fabb 92c3 e5bd
00000320: e693 3dbd beb6 b23e f7e1 9e3e bce1 9c3e
00000330: a740 b3bd f24a d13e 7dca 093d 8f3e e63e
00000340: b05b bebd 3bfb bcbc b896 4bbe 0369 953c
00000350: 5f71 733d 7297 663e c96f 8cbd 3965 8abe
00000360: f9f1 523d 75cd 7bbe 6b1d bbbe f4ea ba3d
00000370: 179d bd3d d00d 63be 2b04 853e 5610 7dbe
00000380: 40b0 173e 1cea b1be 5961 68be 63c6 88be
00000390: de85 2c3e 4921 fcbd 7ed9 04bd 8f53 9bbd
000003a0: 9180 0fbe cb3a 56be 76c7 973e b9e5 9ebe
000003b0: e525 61be 0a9e f03d 5579 4a3e 6293 8e3d
000003c0: c244 abbd ad15 2bbe bb1a 3fbd aa63 43be
000003d0: fb93 a73d f03d 92be 9a37 fb3c 7890 4fbe
000003e0: 2e73 aa3e 3b20 833e c8c4 e3bb 9138 4d3e
000003f0: 6369 143e e304 0c3e 5431 b9bd 0e77 3bbe

fc1.bias f4 [32]
0.031230194 -0.17720582 -0.43337774 -0.19946584 0.108013794 0.31301507 0.42297915 -0.07316341
0.026220432 0.117342226 -0.20498973 0.1708965 0.30224136 -0.1860919 0.22147983 -0.18729877
0.31664953 0.3360652 0.34930468 0.30349365 -0.07838624 -0.27154952 0.40117288 0.31815818
0.36572072 0.20880938 0.32513636 -0.26183823 0.27030498 -0.10945364 -0.087355986 -0.025403399
00000000: 77d6 ff3c 7175 35be b0e3 ddbe c640 4cbe
00000010: 5636 dd3d 8343 a03e b990 d83e b3d6 95bd
00000020: 3bcc d63c 1f51 f03d d4e8 51be 7eff 2e3e
00000030: 61bf 9a3e e08e 3ebe 9ccb 623e 40cb 3fbe
00000040: e31f a23e bd10 ac3e 10d8 b23e 8563 9b3e
00000050: f788 a0bd 8a08 8bbe 8866 cd3e a1e5 a23e
00000060: bf3f bb3e 20d2 553e 4678 a63e a90f 86be
00000070: 6a65 8a3e 3b29 e0bd b2e7 b2bd ca1a d0bc

fc2.weight f4 [32, 32]
0.0032084107 0.11077273 -0.005343799 -0.017469848 0.07261453 -0.08637734 0.057652596 -0.012247119
0.17881198 0.06081906 0.020074628 0.121605225 0.21743001 0.24087183 0.15215401 0.16109791
0.10185473 0.20604481 -0.09932526 -0.01904026 0.10757744 0.115270555 0.19492842 0.13353024
-0.0047650626 -0.031175844 0.16490544 -0.07645649 -0.021607317 -0.064031065 -0.10869409 -0.15122429
0.11625127 -0.11305247 0.05895834 -0.03251286 0.045059975 0.10494139 0.09485496 0.013011524
0.023786979 -0.06611011 0.16471148 0.0925278 0.12494257 0.1615612 0.09867615 -0.12961678
0.13174385 -0.016966093 0.15786336 -0.09719166 -0.15781716 -0.029709376 0.13718598 0.15677162
0.25804627 0.14348991 0.3239812 -0.16757037 0.20957167 -0.11779621 0.058269046 -0.093268596
0.0887241 -0.05867094 -0.04078049 -0.06529684 -0.023330135 -0.11148142 0.033773057 0.026889024
0.16322999 0.29469883 -0.15327607 0.018254576 0.02624492 0.08518543 -0.07634141 0.08416447
-0.14784707 0.020720754 0.13932064 0.120223865 0.43818468 0.004665972 0.11975764 0.007382596
-0.052643344 -0.040598646 0.10129019 0.36134243 -0.15493649 -0.14126301 -0.10915528 -0.1189413
0.1303566 0.03214165 -0.15927562 -0.15781938 -0.018033667 0.00034006496 -0.061255176 0.2606794
0.07420148 -0.0136127835 0.0891035 0.15842532 0.2910377 0.26665753 0.14532787 0.036522456
0.18505764 0.06762293 -0.041937307 0.25907677 -0.15068173 0.04868846 0.09270092 0.12590611
0.23450483 0.027384989 0.26567817 -0.02631026 0.14320602 0.086172625 0.07733849 0.118966796
-0.022411922 -0.17244615 -0.07394675 0.015528353 -0.16309854 -0.040114366 -0.060495056 -0.08226045
-0.023499792 0.055659693 -0.1080496 0.011771657 -0.007887184 -0.004513782 -0.045313407 -0.23216571
0.11825639 0.023772247 -0.061257493 -0.16226156 -0.10270914 0.04976666 -0.019855225 -0.054452885
0.061225537 0.041374423 -0.1121026 -0.17535475 0.15636775 0.07879157 0.20137668 -0.009090436
-0.0016066554 0.088796094 -0.16635174 -0.06461742 -0.13852957 0.33169395 0.044737134 0.011445193
-0.09096763 0.021118395 0.15178216 0.27880955 0.26317808 -0.25728253 0.1790625 -0.11523759
0.26522747 0.118657395 0.044395007 0.1826862 -0.2605518 -0.022311972 0.1396511 0.021909898
0.1640006 0.102471024 0.21526717 -0.2379888 0.21080364 -0.06241383 -0.04476859 0.019929169
0.063637435 -0.07768151 0.045409624 0.12573169 -0.12220013 0.30063507 0.07290875 -0.16942343
-0.04201691 -0.23099005 0.1697882 0.024742499 0.20711938 -0.053194214 0.07436513 -0.14499754
0.12385379 0.06279809 0.20199493 0.1457355 -0.32180792 -0.044275813 0.39187273 0.12855127
0.37201685 0.08188272 0.32404348 -0.051113185 0.1330491 0.14484724 0.20707408 0.19584106
-0.100141004 0.017610786 -0.054055482 0.12141775 -0.021803007 0.046004843 -0.034604233 -0.014356883
0.047239672 0.013849976 0.15724607 0.2353557 0.27664226 -0.0844509 0.046963308 -0.20799018
-0.021967065 -0.009614943 0.0024771206 0.10356076 0.04430562 0.17178999 0.058108844 0.1461303
0.3109207 0.11066989 0.030806175 -0.11753639 0.22382687 -0.03392992 -0.020005032 0.13762915
00000000: 3344 523b d0dc e23d 091b afbb ed1c 8fbc
00000010: edb6 943d 9ae6 b0bd 2125 6c3d 24a8 48bc
00000020: 7d1a 373e 681d 793d 8c73 a43c 290c f93d
00000030: f9a5 5e3e 1ba7 763e 43ce 1b3e daf6 243e
00000040: 3699 d03d 69fd 523e 0b6b cbbd 52fa 9bbc
00000050: 9051 dc3d f812 ec3d 519b 473e 27bc 083e
00000060: 3e24 9cbb 7c64 ffbc f9dc 283e 3895 9cbd
00000070: d401 b1bc b822 83bd 029b debd 8ada 1abe
00000080: 2515 ee3d 0e88 e7bd 4d7e 713d 342c 05bd
00000090: cf90 383d 83eb d63d 5143 c23d 4a2e 553c
000000a0: e9dc c23c bd64 87bd 20aa 283e 377f bd3d
000000b0: e4e1 ff3d 4d70 253e b916 ca3d 43ba 04be
000000c0: dce7 063e 7afc 8abc efa6 213e 6c0c c7bd
000000d0: d29a 21be 1461 f3bc 7b7a 0c3e bd88 203e
000000e0: a41e 843e 05ef 123e dde0 a53e 9197 2bbe
000000f0: f599 563e 243f f1bd 86ab 6e3d 9b03 bfbd
00000100: fbb4 b53d f150 70bd 7109 27bd 5aba 85bd
00000110: d71e bfbc 5f50 e4bd 9e55 0a3d 5f46 dc3c
00000120: c325 273e c4e2 963e 67f4 1cbe 9f8a 953c
00000130: 96ff d63c b375 ae3d e358 9cbd 6c5e ac3d
00000140: 3965 17be 92be a93c 12aa 0e3e ee37 f63d
00000150: be59 e03e 03e5 983b 7e43 f53d b4e9 f13b
00000160: 8ca0 57bd c44a 26bd 3b71 cf3d e001 b93e
00000170: aca7 1ebe 40a7 10be ce8c dfbd 7f97 f3bd
00000180: 337c 053e f6a6 033d 2619 23be 679b 21be
00000190: 57bb 93bc bf4a b239 b5e6 7abd c577 853e
000001a0: f2f6 973d 2708 5fbc e57b b63d 3f3a 223e
000001b0: e502 953e 5687 883e d4d0 143e 9298 153d
000001c0: c07f 3d3e e47d 8a3d 74c6 2bbd b6a5 843e
000001d0: 504c 1abe 8d6d 473d fbd9 bd3d 88ed 003e
000001e0: 0922 703e 7c56 e03c f806 883e 9d88 d7bc
000001f0: 99a4 123e 467b b03d a463 9e3d dda4 f33d
00000200: 3599 b7bc b995 30be 6571 97bd a26a 7e3c
00000210: 4e03 27be f64e 24bd aac9 77bd 2b78 a8bd
00000220: a382 c0bc 6bfb 633d 1c49 ddbd e8dd 403c
00000230: 3f39 01bc 59e8 93bb 8d9a 39bd d9bc 6dbe
00000240: 6830 f23d 04be c23c 23e9 7abd e527 26be
00000250: 2b59 d2bd 20d8 4b3d 6da7 a2bc fd09 5fbd
00000260: a1c7 7a3d 3a78 293d 0c96 e5bd 3290 33be
00000270: de1e 203e 7a5d a13d b035 4e3e 0df0 14bc
00000280: 6996 d2ba bada b53d 1c58 2abe 2356 84bd
00000290: b2da 0dbe cad3 a93e 493e 373d 9e84 3b3c
000002a0: 3d4d babd 7c00 ad3c c86c 1b3e 20c0 8e3e
000002b0: 47bf 863e 89ba 83be 295c 373e b001 ecbd
000002c0: e5cb 873e a602 f33d 8ad7 353d 1712 3b3e
000002d0: 0c67 85be 99c7 b6bc b300 0f3e 637c b33c
000002e0: c6ef 273e 54dc d13d ff6e 5c3e 56b3 73be
000002f0: e9dc 573e a5a5 7fbd 455f 37bd 7f42 a33c
00000300: 5854 823d 7c17 9fbd 71ff 393d cfbf 003e
00000310: 1044 fabd d7ec 993e 2f51 953d 567d 2dbe
00000320: ec19 2cbd a888 6cbe f5dc 2d3e c8b0 ca3c
00000330: 1a17 543e 2de2 59bd bf4c 983d 3c7a 14be
00000340: 0ea7 fd3d 499c 803d c2d7 4e3e b03b 153e
00000350: 02c4 a4be 8e5a 35bd 8ba3 c83e f2a2 033e
00000360: fe78 be3e 21b2 a73d 07e9 a53e 0f5c 51bd
00000370: 063e 083e d652 143e 3a0b 543e 8f8a 483e
00000380: ba16 cdbd 7f44 903c 4869 5dbd dfa9 f83d
00000390: 389c b2bc 936f 3c3d 2bbd 0dbd 2239 6bbc
000003a0: 637e 413d 02eb 623c 1d05 213e 1601 713e
000003b0: 0ea4 8d3e 98f4 acbd 995c 403d 61fb 54be
000003c0: 46f4 b3bc fe87 1dbc 3057 223b aa17 d43d
000003d0: cf79 353d b7e9 2f3e 8a03 6e3d 2ea3 153e
000003e0: ff30 9f3e e5a6 e23d 3b5d fc3c ebb6 f0bd
000003f0: df32 653e 1afa 0abd 98e1 a3bc a8ee 0c3e

fc2.bias f4 [32]
-0.08860527 -0.059507854 -0.057988476 0.18524893 0.007912611 0.14892043 -0.030209651 0.04592413
0.05259956 0.2016268 0.07496975 0.020653753 0.029754939 -0.07391129 0.017129278 0.2110564
0.08903928 -0.014619991 0.15002054 0.05197531 0.23085088 -0.06277326 0.17451067 0.02754104
-0.041885514 -0.0909091 0.081111595 0.16693942 0.2460865 -0.0859587 0.194303 -0.10312993
00000000: ae76 b5bd 82be 73bd 5385 6dbd e5b1 3d3e
00000010: e5a3 013c 997e 183e 3b7a f7bc f11a 3c3d
00000020: a372 573d 4177 4e3e be89 993d 0f32 a93c
00000030: a1c0 f33c cd5e 97bd b352 8c3c 2b1f 583e
00000040: 3a5a b63d b088 6fbc fc9e 193e 10e4 543d
00000050: 2c64 6c3e 448f 80bd edb2 323e bf9d e13c
00000060: 2590 2bbd 8d2e babd d61d a63d 2bf2 2a3e
00000070: 19fe 7b3e 1d0b b0bd 5ef7 463e c935 d3bd

fc3.weight f4 [2, 32]
0.13939898 -0.08453699 0.277651 0.10612632 -0.16102467 -0.12875144 -0.2279463 -0.11756864
-0.22709824 -0.16046429 -0.18580556 -0.094352506 0.22597587 -0.04412087 -0.25540015 -0.019777669
0.043201476 0.24762444 0.07076616 -0.22479242 -0.26141727 -0.0030471657 -0.03592646 0.37153202
0.18127449 -0.0034169753 0.2353565 -0.18239748 0.0014588982 0.16642642 -0.17244826 0.11167622
0.09554604 0.16246456 -0.0012377449 0.23925377 0.012453697 0.21105893 0.13804863 0.09425416
0.15674734 0.29786786 0.21737604 0.25100973 -0.13163717 -0.1791411 0.2077561 0.17914717
-0.11233592 -0.22946565 0.20321655 0.24715146 0.114341035 -0.1324905 0.27564812 -0.18261804
-0.13593736 -0.05168629 -0.05954959 0.29461366 0.21173747 -0.24905388 0.2718772 0.017177854
00000000: 9bbe 0e3e bb21 adbd 4628 8e3e c258 d93d
00000010: a7e3 24be 6bd7 03be c16a 69be d4c7 f0bd
00000020: 718c 68be c050 24be d043 3ebe e33b c1bd
00000030: 3866 673e 16b8 34bd cfc3 82be c704 a2bc
00000040: 08f4 303d 4391 7d3e d9ed 903d fc2f 66be
00000050: 7cd8 85be f5b2 47bb a027 13bd 7239 be3e
00000060: 05a0 393e 55ef 5fbb 4b01 713e 68c6 3abe
00000070: 8038 bf3a b06b 2a3e 4796 30be 81b6 e43d
00000080: a4ad c33d 1c5d 263e d43b a2ba f1fe 743e
00000090: 970a 4c3c d51f 583e 9f5c 0d3e 5308 c13d
000000a0: 6082 203e 2382 983e d397 5e3e 5984 803e
000000b0: e5cb 06be c470 37be 04be 543e 5b72 373e
000000c0: 6010 e6bd 0bf9 6abe 0018 503e 4615 7d3e
000000d0: a22b ea3d 97ab 07be c021 8d3e 3900 3bbe
000000e0: 2a33 0bbe 01b5 53bd 45ea 73bd 9ad7 963e
000000f0: b5d1 583e fb07 7fbe 7d33 8b3e 92b8 8c3c

fc3.bias f4 [2]
0.09498528 0.041559342
00000000: a487 c23d 213a 2a3d
