networks/wdbcNetwork.pt (torch, 4592 bytes, 6 tensors)

fc1.weight f4 [16, 10]
0	0x3e793e3a	0.24340144
1	0x3e1ae046	0.15124616
2	0xbe3e075c	-0.18557495
3	0xbcd856df	-0.02640861
4	0xbea79d86	-0.32737368
5	0x3eb20694	0.34770644
6	0x3e8e6782	0.27813345
7	0xbb4d5140	-0.0031328946
8	0xbe4cadf9	-0.1998824
9	0xbe3cc7df	-0.1843562
10	0x3e6f435a	0.23365536
11	0x3ec64047	0.38720915
12	0x3ede2601	0.4338837
13	0x3e9fb819	0.31195143
14	0xbc91d93b	-0.017803779
15	0x3e6886ef	0.22707723
16	0x3f0ff5a6	0.56234205
17	0x3e97d6e7	0.29656145
18	0x3e7d6a36	0.24747548
19	0xbe824ffb	-0.25451645
20	0x3d97ae45	0.07406286
21	0xbea57ce2	-0.3232184
22	0xbe88a062	-0.26684862
23	0xbe759c3a	-0.23985377
24	0xbee20088	-0.4414103
25	0xbd31ae91	-0.04337937
26	0x3e86dd83	0.26340875
27	0xbcc2f794	-0.023799695
28	0xbe260d4f	-0.16216014
29	0xbdae06d4	-0.08497396
30	0x3dce756f	0.100809924
31	0xbda4b8b8	-0.08043045
32	0x3e1f8b47	0.15580474
33	0x3e80690b	0.2508014
34	0xbe68d236	-0.22736439
35	0x3e5c33ab	0.21504085
36	0x3e50447a	0.20338622
37	0x3e41523b	0.18879025
38	0xbe4576ec	-0.19283646
39	0xbedbc9d7	-0.4292743
40	0xbe946ab6	-0.28987664
41	0xbed57edf	-0.41698357
42	0xbd6e30b4	-0.058151916
43	0xbe9e9551	-0.30973294
44	0x3e560c5d	0.20903154
45	0xbe57c278	-0.21070278
46	0x3e76427f	0.24048804
47	0xbdcc9e87	-0.09991174
48	0xbdd98fea	-0.106231526
49	0x3ed95d3f	0.42453954
50	0xbc87ca21	-0.016575875
51	0xbe6b4686	-0.22976121
52	0x3e4142c6	0.18873128
53	0xbea46367	-0.32107088
54	0x3d1621f4	0.036653474
55	0x3de2b74b	0.110701166
56	0xbe13727d	-0.14399143
57	0xbeb7c32f	-0.358911
58	0xbe3f06c0	-0.18654919
59	0x3e3a6b2a	0.18204942
60	0x3e9796af	0.2960715
61	0xbcfb4b01	-0.030675413
62	0xbd5c4b24	-0.053782597
63	0xbe80adae	-0.25132507
64	0x3d004cab	0.031323116
65	0xbe165579	-0.14681043
66	0xbf3c11e7	-0.73464817
67	0xbe0af87a	-0.13571349
68	0x3c491eab	0.012275378
69	0x3d91fd7b	0.07128426
70	0xbcf0c6c0	-0.029391646
71	0x3cc89461	0.024484815
72	0x3dd90ea8	0.105984986
73	0x3ee10c90	0.43954897
74	0x3e904214	0.28175414
75	0xbd1f8051	-0.03894073
76	0xbdbd1d2f	-0.09234082
77	0x3c5b7167	0.013393736
78	0x3e155004	0.14581305
79	0xbd826ac0	-0.06368017
80	0x3e7c8c99	0.24663009
81	0x3ea95b69	0.33077553
82	0x3e569b0d	0.20957585
83	0x3e894b01	0.26815036
84	0x3eb615e5	0.3556358
85	0x3e0a3941	0.13498403
86	0x3e6a1780	0.22860527
87	0x3f23647d	0.6382521
88	0x3e95a0e5	0.29224315
89	0x3ca65a8d	0.02030685
90	0xbd6c4876	-0.05768629
91	0xbeedc658	-0.46440387
92	0xbe44d2f0	-0.19221091
93	0xbd56dc4f	-0.052456196
94	0x3e990805	0.2988893
95	0x3db91652	0.090374604
96	0xbef361a3	-0.47535428
97	0xbebabd10	-0.36472368
98	0x3f008dd9	0.5021644
99	0x3ebf3f29	0.37352875
100	0x3e3dc4fe	0.18532178
101	0x3e82edc2	0.2557202
102	0xbe1adfc0	-0.15124416
103	0xbd4f733e	-0.050647013
104	0xbdb114e2	-0.08646561
105	0x3d9f94f4	0.077920824
106	0xbea9dfbc	-0.33178508
107	0xbf00f818	-0.5037856
108	0x3e8dba73	0.27681312
109	0x3dfa15d7	0.12211197
110	0xbdb111d3	-0.08645978
111	0xbe51c684	-0.20485884
112	0x3e08dee6	0.13366279
113	0xbe73c5e7	-0.23805963
114	0xbe139862	-0.14413598
115	0x3dec236e	0.11530195
116	0xbe29dd8f	-0.16588424
117	0xbf0444b6	-0.51667345
118	0x3edbcad6	0.4292819
119	0x3eaec655	0.3413569
120	0x3e127935	0.1430405
121	0xbe984f28	-0.2974789
122	0x3e10fb32	0.14158323
123	0x3ca04c02	0.019567493
124	0xbb5d73b0	-0.003379088
125	0xbe974fa3	-0.29552945
126	0x3cb9e9c0	0.022694468
127	0xbef63d6b	-0.48093733
128	0x3e61c6b1	0.22048451
129	0x3f075c81	0.52875525
130	0xbea7dc16	-0.327851
131	0xbed53cf8	-0.41648078
132	0xbd8a30bf	-0.06747579
133	0xbce4457e	-0.027865168
134	0xbe569040	-0.20953465
135	0x3eb99b55	0.3625132
136	0x3e9497b1	0.2902198
137	0xbe926beb	-0.2859796
138	0x3e46d470	0.19416976
139	0x3e8873ab	0.26650748
140	0xbc2fa68d	-0.010720861
141	0x3e72a222	0.23694661
142	0x3eaba971	0.3352771
143	0x3eebdb6c	0.46065843
144	0x3ea86d30	0.32895803
145	0xbe212b70	-0.15739226
146	0x3f1ad475	0.60480434
147	0x3ebdbc06	0.37057513
148	0x3e830c07	0.25595114
149	0xbdcc1e76	-0.099667475
150	0x3eb62475	0.3557469
151	0x3eeab222	0.4583903
152	0x3e84b52f	0.25919482
153	0xbd86d3a7	-0.06583338
154	0x3e05c968	0.13065112
155	0x3d1420cf	0.0361641
156	0x3e514090	0.20434785
157	0x3e56ce81	0.20977212
158	0x3e679523	0.22615485
159	0xbc02fadc	-0.00799438

fc1.bias f4 [16]
0	0xbf05ec0f	-0.5231332
1	0xbe8dab7a	-0.2766989
2	0xbebef3d0	-0.3729539
3	0xbdfbf67c	-0.123028725
4	0x3d9255da	0.07145281
5	0x3f1733a7	0.5906319
6	0x3eb86b85	0.3601953
7	0x3d6c9af9	0.05776498
8	0xbecd91cf	-0.40150306
9	0x3e9abd01	0.30222324
10	0x3d5c8812	0.053840704
11	0x3e17f970	0.14841247
12	0x3f0a2aaf	0.5397138
13	0x3e0edf92	0.13952473
14	0xbe3b603f	-0.18298434
15	0xbe6f2ff2	-0.23358133

fc2.weight f4 [16, 16]
0	0xbdf36b90	-0.1188575
1	0x3e96fec9	0.2949126
2	0x3dd28e6c	0.10281071
3	0x3e23d9fa	0.1600112
4	0xbe9e3515	-0.30899873
5	0xbdeb9bdb	-0.115043364
6	0xbdb62ffd	-0.08895872
7	0x3d828f99	0.06375045
8	0x3f00d342	0.50322354
9	0xbe13276b	-0.14370506
10	0x3dd54292	0.10413088
11	0x3d5ecb08	0.054392844
12	0xbe542c79	-0.2072009
13	0xbe085d5d	-0.13316865
14	0x3eb729e1	0.3577414
15	0x3ea5a0de	0.32349294
16	0xbe45881e	-0.19290206
17	0x3ef93b1e	0.48677915
18	0xbdfc596c	-0.12321743
19	0x3e6a1d45	0.22862728
20	0xbe501742	-0.20321372
21	0xbe521865	-0.20517118
22	0xbe76c4af	-0.24098466
23	0xbd951864	-0.07280043
24	0x3ede6ac0	0.4344082
25	0xbeddd3ed	-0.4332575
26	0x3d086b06	0.03330519
27	0xbdefd539	-0.11710591
28	0x3e12d650	0.14339566
29	0xbeb96e47	-0.36216947
30	0x3e9ca10b	0.30591616
31	0x3e4edbca	0.2020103
32	0xbcffe460	-0.031236827
33	0xbe3cb03c	-0.18426603
34	0x3da0b0e8	0.07846242
35	0x3dc01f3c	0.093809575
36	0x3e78a986	0.24283418
37	0x3f0e8e3f	0.556858
38	0x3ee23d37	0.44187328
39	0x3d94514f	0.07242071
40	0xbeaf4303	-0.34230813
41	0x3e04a3ba	0.12953082
42	0xbd8bbed2	-0.068235055
43	0xbce0dc47	-0.027448786
44	0x3ee23269	0.44179085
45	0x3ee4ab4d	0.44661942
46	0xbd82f043	-0.063934825
47	0x3d323bd4	0.043514088
48	0x3d64b990	0.05584103
49	0x3f247468	0.6424012
50	0x3da81f98	0.08209151
51	0x3e9a059b	0.30082402
52	0xbe8e2bf4	-0.2776791
53	0xbd8662bd	-0.065618016
54	0xbe9e9a2f	-0.30977008
55	0x3dda9424	0.10672787
56	0x3ed2947d	0.41128913
57	0xbe913590	-0.28361177
58	0x3e1ab36d	0.15107508
59	0xbe5bf226	-0.21479091
60	0xbe627699	-0.22115554
61	0xbf052f8f	-0.52025694
62	0x3eb78169	0.3584092
63	0x3e5ba1f6	0.21448502
64	0x3d12de88	0.035856754
65	0x3eaff3fa	0.34365827
66	0xbda731c8	-0.08163792
67	0x3e934b6d	0.28768483
68	0xbeb94c6e	-0.36191124
69	0xbf10acca	-0.56513655
70	0xbea1e9f3	-0.31623802
71	0x3e0c92a0	0.13727808
72	0x3ec5b4b6	0.38614434
73	0xbea309b4	-0.3184334
74	0xbd0a506d	-0.033768106
75	0xbe437d3e	-0.19090745
76	0xbc7d4990	-0.015459433
77	0xbde03bdb	-0.109489165
78	0x3ef4633f	0.4773197
79	0x3d99089f	0.074723475
80	0xbd9e2b9c	-0.077231616
81	0x3df76890	0.120804906
82	0x3e3c112a	0.18365923
83	0xbc096ed1	-0.008388237
84	0xbe269af1	-0.16270043
85	0xbe9194c6	-0.28433818
86	0xbd9d6c57	-0.0768668
87	0x3ce3777f	0.027766941
88	0xbdc07ae4	-0.093984395
89	0xbeaddbf4	-0.33956873
90	0xbd73950f	-0.059468325
91	0xbdc27363	-0.094946645
92	0x3c78bc42	0.015181603
93	0xbe03b704	-0.12862784
94	0xbced43eb	-0.02896305
95	0x3e460e47	0.19341384
96	0x3e724cf8	0.23662174
97	0xbc1fe95b	-0.009760226
98	0x3e4498a6	0.19198856
99	0xbd1923ee	-0.03738778
100	0xbe739090	-0.23785615
101	0xbe6de242	-0.23230842
102	0xbdd2ce19	-0.10293216
103	0xbed5714d	-0.41688004
104	0x3c90de5a	0.01768415
105	0xbe9b95d8	-0.3038776
106	0x3ce4643a	0.027879823
107	0xbea32cd7	-0.31870148
108	0xbd53a18f	-0.051667746
109	0xbe17a0ac	-0.14807385
110	0xbe4deaa0	-0.20109034
111	0xbe9866ed	-0.29766026
112	0xbd8719c0	-0.06596708
113	0x3ef97902	0.48725134
114	0x3d487c08	0.04894641
115	0x3e27e8ce	0.16397402
116	0xbe394a6c	-0.18094796
117	0xbe34b002	-0.17645267
118	0x3d39a0a0	0.0453192
119	0xbcef1378	-0.029184088
120	0x3ead1898	0.33807826
121	0xbdaeac39	-0.085289426
122	0xbe0fa279	-0.14026822
123	0xbc119e9a	-0.008887911
124	0xbe57d0fb	-0.21075813
125	0xbe826be8	-0.2547295
126	0x3f10aec8	0.56516695
127	0x3f0f598c	0.5599601
128	0xbe59607e	-0.21228215
129	0xbe19ca4d	-0.15018578
130	0xbd21ee38	-0.039533824
131	0xbd8e1a2d	-0.069385864
132	0x3b6e63db	0.0036375436
133	0x3eb4c2f2	0.3530498
134	0x3e8e6f8b	0.27819476
135	0x3dbebf8f	0.09313881
136	0xbe61469a	-0.21999589
137	0x3eea451b	0.45755848
138	0x3ea531e5	0.3226463
139	0x3e3e8003	0.1860352
140	0x3e3ba113	0.18323164
141	0x3e0fce03	0.14043431
142	0xbde1fc04	-0.11034396
143	0x3c38fd9d	0.011290935
144	0xbd749ed8	-0.059721798
145	0xbeea0d93	-0.4571348
146	0x3d245598	0.04012069
147	0xbe65beea	-0.22436109
148	0x3e2345f8	0.1594466
149	0x3f1b0455	0.60553485
150	0x3ea776b1	0.32707742
151	0x3e603f7c	0.21899217
152	0xbefbcbef	-0.49179026
153	0x3f122633	0.5708954
154	0x3e98e9f8	0.29866004
155	0x3eb3d366	0.35122222
156	0x3ecb3fd1	0.39697126
157	0x3e7b9b98	0.24571073
158	0xbe068bda	-0.13139287
159	0xbe843e44	-0.25828755
160	0xbe30554c	-0.17220038
161	0x3ea40d9e	0.3204164
162	0xbca96190	-0.020676404
163	0x3ea57829	0.32318237
164	0xbd1f8754	-0.03894742
165	0xbecbab68	-0.3977921
166	0xbf1da26e	-0.61575973
167	0x3d8927f3	0.06697073
168	0x3ef36ca8	0.47543836
169	0xbe62075b	-0.22073118
170	0xbeb0751f	-0.34464356
171	0xbe8921d7	-0.2678363
172	0xbc8ed298	-0.017434403
173	0xbe5b6dc2	-0.21428588
174	0xbce634fc	-0.028101437
175	0x3e523112	0.20526531
176	0xbd3623e0	-0.044467807
177	0x3b90aa46	0.0044148294
178	0xbe43d5b8	-0.19124496
179	0x3dfa8746	0.122328326
180	0x3e812ed7	0.25231048
181	0x3f35ce0f	0.71017545
182	0x3ed4bb6d	0.41549245
183	0xbcbc2c1a	-0.022970248
184	0xbe4fdf54	-0.20300037
185	0x3e8b35f4	0.271896
186	0x3d97484d	0.07386837
187	0x3d9dea26	0.07710676
188	0x3e95417b	0.2915152
189	0xbcb8e251	-0.022568854
190	0xbc922a10	-0.017842323
191	0xbb13e743	-0.0022568263
192	0x3db3afb8	0.0877375
193	0x3ebe5488	0.37173867
194	0xbe56021a	-0.20899239
195	0xbdf34ed9	-0.11880273
196	0xbeaaa129	-0.3332608
197	0xbd702c64	-0.058636084
198	0xbe4eccea	-0.20195356
199	0x3ea8f563	0.32999715
200	0x3ecaf642	0.39641005
201	0xbe5596f8	-0.20858371
202	0x3e860d86	0.26182193
203	0xbe73763c	-0.23775572
204	0xbde645ef	-0.112438075
205	0xbe9c6223	-0.30543622
206	0x3e97aab0	0.29622412
207	0x3e40d8f8	0.18832767
208	0x3c9d2a60	0.019185245
209	0x3e734068	0.23755038
210	0x3e4ee9c0	0.20206356
211	0xbdac700d	-0.084198095
212	0xbe954952	-0.291575
213	0xbf000101	-0.5000153
214	0xbee60ec4	-0.4493314
215	0x3e66bca9	0.22532906
216	0x3ecece6e	0.40391868
217	0xbd99b117	-0.0750448
218	0xbe0989fe	-0.13431546
219	0xbdd0672b	-0.10175928
220	0xbd3d92d9	-0.046282623
221	0xbdb0af5c	-0.08627197
222	0x3ec3a3bc	0.38210857
223	0x3e6a6d27	0.22893201
224	0x3e5b74a4	0.21431214
225	0x3edc9c19	0.43087843
226	0xbd35bb70	-0.044368207
227	0xbe0b2a43	-0.1359034
228	0xbebbb05a	-0.36657983
229	0xbe844ee3	-0.25841436
230	0xbdf95a9f	-0.12175488
231	0x3dd05b7a	0.10173698
232	0x3ef0dc6c	0.4704317
233	0xbf005f35	-0.50145274
234	0xbdfb7b3f	-0.12279367
235	0xbe272ce8	-0.16325724
236	0x3d6b689e	0.057472818
237	0xbddb300c	-0.107025236
238	0x3f09dcfa	0.5385281
239	0x3e70f0d4	0.23529369
240	0xbdc4adf8	-0.096034944
241	0xbe6b5705	-0.22982414
242	0xbe5dfa40	-0.21677494
243	0xbe7f6626	-0.2494131
244	0x3e49e4b3	0.19716148
245	0x3f2da0f5	0.67823726
246	0x3e943e6e	0.2895388
247	0x3eb4d445	0.353182
248	0xbe91e706	-0.2849657
249	0x3f08b79a	0.53405154
250	0xbd8df0f3	-0.06930723
251	0x3e788d25	0.24272592
252	0x3e99a693	0.300099
253	0x3f0f02a7	0.5586342
254	0xbde88891	-0.11354173
255	0xbdee7a02	-0.11644365

fc2.bias f4 [16]
0	0xbe0ca2aa	-0.13733926
1	0xbdf023ec	-0.117256016
2	0x3e88553a	0.26627523
3	0xbdf6e433	-0.12055244
4	0x3d3dbd09	0.046322856
5	0xbe029c6d	-0.12754984
6	0x3df3ee86	0.11910729
7	0xbe5257fb	-0.20541374
8	0x3ecd38c3	0.40082368
9	0x3e92dfdf	0.28686425
10	0xbcdbe143	-0.026840812
11	0x3e4eeffa	0.20208731
12	0xbdfec386	-0.12439637
13	0x3d3de762	0.046363242
14	0xbd9dc2c5	-0.07703165
15	0x3e488b4a	0.19584385

fc3.weight f4 [2, 16]
0	0x3efbf1a1	0.49207786
1	0x3ee3d5b8	0.44498992
2	0xbf14888f	-0.5802087
3	0x3f2c4485	0.6729205
4	0x3ea5dbed	0.32394353
5	0xbd8f9ab8	-0.07011932
6	0xbe2c176e	-0.16805813
7	0x3ebc041f	0.36721894
8	0xbd553ce8	-0.052060038
9	0xbf29883e	-0.66223514
10	0x3f5d3de5	0.8642257
11	0xbd5d74c1	-0.054066423
12	0x3e82647d	0.2546729
13	0x3e88173c	0.26580226
14	0x3f19402a	0.5986353
15	0xbef8404b	-0.48486552
16	0xbeb07d4c	-0.34470594
17	0xbe8f0c7e	-0.27939218
18	0x3e135a92	0.14390019
19	0xbf01e34e	-0.50737464
20	0xbeec21f8	-0.46119666
21	0xbe108cb4	-0.14116174
22	0xbe032077	-0.12805353
23	0xbef59bde	-0.4797048
24	0x3ee5be73	0.44871864
25	0x3f373790	0.71569157
26	0xbf819947	-1.0124902
27	0x3eb83fad	0.3598608
28	0xbf1af659	-0.60532147
29	0xbedab12b	-0.42713293
30	0xbedbf045	-0.4295675
31	0x3ebc253a	0.36747152

fc3.bias f4 [2]
0	0x3e0bf1fe	0.13666531
1	0x3f00b20f	0.50271696
