networks/wineNetwork.pt (torch, 4784 bytes, 6 tensors)

fc1.weight f4 [16, 12]
000000 b2 73 e7 3e 1e 73 cb 3e 93 83 30 3b 2f f9 a1 bd
       0.45205456 0.39736265 0.0026933893 -0.07908856
000010 89 50 ef 3d b1 f8 ac 3d fe 4d 54 3e 7a 3d 6d 3e
       0.11685283 0.084458716 0.20732877 0.23167983
000020 b1 64 88 3c be 3a bd 3e 2d 57 bc be 69 4c 2d be
       0.016649576 0.3695888 -0.3678526 -0.1692368
000030 ea 14 ea bd 27 d3 0f 3e 9b b3 75 bd 07 eb 7a 3c
       -0.1142977 0.14045392 -0.05998574 0.015314824
000040 5f 9c cd 3d 07 54 ef 3e 28 6c a1 3d 87 a7 52 be
       0.10039591 0.46743795 0.07881957 -0.20571719
000050 c9 52 f8 3e cc ec ed 3d dc 6b e1 3e 02 44 5e 3e
       0.4850066 0.11617431 0.44027603 0.2170563
000060 7e d4 03 3e 72 b0 0c be 5d 71 5d be 3d 58 d2 3d
       0.12874028 -0.13739184 -0.21625276 0.10270736
000070 fa 39 b7 3e 0b 78 ea bd 38 2d 79 3d 46 b6 1f be
       0.3578642 -0.11448678 0.06083414 -0.15596876
000080 7e 5d ab 3e db 11 e8 be b4 30 42 3e db 10 22 3c
       0.33469766 -0.45326123 0.18963891 0.009891714
000090 01 48 4d 3e 74 16 a7 3e b0 90 2c 3e ba 5a c1 3e
       0.20046999 0.32634318 0.16852069 0.3776453
0000a0 20 17 18 3e 12 3d 9f be 2a b6 87 be 55 e8 26 3e
       0.14852571 -0.3110128 -0.26506168 0.16299565
0000b0 a3 d5 a7 bd 2d 55 02 3e 31 ec b1 3d 59 6b d3 be
       -0.08195045 0.12727804 0.08687628 -0.41292837
0000c0 e8 cc ac 3e b9 3e cd 3e 64 35 17 3d 8b 79 0f 3e
       0.3375008 0.40086916 0.03691615 0.14011209
0000d0 34 a2 3c bb ef bc 63 3e ab 23 6a bd de 29 31 3d
       -0.0028783204 0.22240041 -0.057162922 0.04325282
0000e0 ca e7 14 bc 84 c1 09 3f 3e 82 c6 bc dc 02 83 be
       -0.009088466 0.53810906 -0.024232026 -0.2558812
0000f0 19 9d 7e 3e a3 fe f2 bd ea 31 42 3e ef ed a3 bd
       0.24864615 -0.11864974 0.18964353 -0.080043666
000100 25 b0 88 3e 15 ae 91 3c 60 cb ce bd 21 c8 12 3e
       0.26696888 0.017783204 -0.100973845 0.14334156
000110 4a e1 05 3e 41 2d 92 3e b0 02 86 be a1 4e 38 3e
       0.13074222 0.2855015 -0.26173925 0.17998745
000120 0d e1 e9 3e ff 40 69 bc ba ee aa 3e a7 2f 29 be
       0.45679513 -0.014236688 0.3338526 -0.16522084
000130 ce dc a4 3d 21 2a 0f 3e 51 19 86 be fe 8f 27 3e
       0.08049928 0.13980915 -0.2619119 0.16363522
000140 d5 c3 46 bd b1 4e 40 3e 14 a1 82 be 74 47 05 be
       -0.048526604 0.18780018 -0.25513518 -0.13015538
000150 9b a7 a4 bd a1 1e dd 3e 4d 9d bd bb 9e 54 52 3d
       -0.08039781 0.4318743 -0.005786574 0.05135023
000160 03 0a 50 be 4d 49 48 3e e3 e7 17 be ea 77 ca 3e
       -0.20316319 0.19559212 -0.14834552 0.39544612
000170 65 38 b7 3d bf 9d a2 bd b3 a1 6f bd 3f 1a a2 be
       0.08946303 -0.07940244 -0.058503818 -0.3166065
000180 60 62 af bd a6 79 97 bd 63 68 05 3e 71 59 9a 3e
       -0.085636854 -0.073962495 0.13028102 0.30146363
000190 e3 c4 6f 3e 4d 60 4e 3e 7f 86 80 bb ce 85 aa 3e
       0.2341495 0.20153923 -0.003922283 0.3330521
0001a0 dd 2d 70 3d f8 1a 17 be be 21 b9 3e 2b 44 b4 3e
       0.05863749 -0.14756382 0.36158556 0.35208258
0001b0 00 ce 01 3f c1 c7 40 3e 22 a0 ae 3e e6 8f 8c be
       0.50704956 0.188262 0.34106547 -0.27453536
0001c0 1e eb 04 3e e1 e2 7d bd fd d1 09 3f 8d d6 f9 3c
       0.12980315 -0.061983947 0.5383604 0.030497814
0001d0 44 0a 59 bd 7b d7 a0 3b 44 fc 6d 3e 45 06 11 bd
       -0.052988306 0.0049085 0.23240763 -0.03540637
0001e0 87 0e 25 3e c7 d2 81 3b e8 c0 52 be 3e af f0 3d
       0.16118823 0.003961894 -0.205814 0.11752175
0001f0 24 fc 7a 3e 6b b6 0b be 74 e7 fa be 6d 69 ad bc
       0.24510247 -0.13643806 -0.4900471 -0.021168435
000200 a2 31 84 3e 49 86 8d 3e d9 32 1c be 9b aa 28 be
       0.25819117 0.27641514 -0.15253772 -0.16471331
000210 3b 34 b2 be 3d d0 21 3e 59 0a 9c 3d e7 5b 98 3e
       -0.34805474 0.15802093 0.07619161 0.29757616
000220 7a 51 45 3e d7 32 6e be 6c a6 94 be 58 f0 12 3e
       0.19269362 -0.23261581 -0.2903322 0.14349496
000230 73 a8 33 bb 00 0e 01 be 58 99 f4 bd 59 49 31 bd
       -0.0027413636 -0.12602997 -0.119433105 -0.04328284
000240 58 36 12 3f 72 d2 02 3d 61 8b 9e 3e 31 1c 1f be
       0.5711417 0.031938978 0.30965713 -0.15538098
000250 a2 6f 95 3e fb fc e6 3d c4 61 00 be b7 70 12 3d
       0.29186732 0.11278721 -0.12537295 0.035752025
000260 16 e8 8d 3d 0e e3 00 3e de 6a a5 be 20 84 ac bd
       0.069290325 0.12586614 -0.32308096 -0.08423638
000270 f1 12 95 bd af 07 71 3e fc 25 53 bc 46 78 9d 3e
       -0.072790034 0.23538087 -0.012887474 0.30755824
000280 d8 db 60 3e b9 69 3d 3e f2 b4 a3 be e9 8c b8 3d
       0.21958864 0.18497361 -0.31973988 0.090112515
000290 7c e6 46 3e 11 17 8a 3e 1c 0e d4 bd 17 a2 cd be
       0.1942386 0.26970723 -0.10354254 -0.40162727
0002a0 58 b6 c9 3a 78 22 1e bd 16 cd c2 bd 3c 78 6e 3e
       0.0015389426 -0.03860709 -0.09511773 0.23288053
0002b0 90 5a d1 bd 86 63 1a bd 21 0c 80 3e 6f c1 9c 3e
       -0.102223516 -0.03769257 0.25009254 0.30616328
0002c0 94 59 5d be 99 87 1d 3b fa d7 5a 3e d0 6f c2 bc
       -0.21616203 0.0024037121 0.21371451 -0.023734957
0002d0 ff 5e 5d be e5 76 e0 bc 8c ba 88 3e 0a 37 a8 bc
       -0.2161827 -0.027400443 0.26704824 -0.020534057
0002e0 4b d9 fd bd a7 50 01 bd 68 a6 0b 3e 2d 76 76 3e
       -0.12394961 -0.031571057 0.13637698 0.24068518
0002f0 e4 bf c7 3d 1a 68 a4 be 58 5c ab 3e 67 e9 5d 3e
       0.09753397 -0.32110673 0.3346889 0.21671067

fc1.bias f4 [16]
000000 4d 42 54 bd 06 de 20 3e fe 5f da bd 93 e7 58 bd
       -0.05182104 0.15709695 -0.1066284 -0.05295522
000010 ae 9b 06 be 01 9b 86 bd 3b 27 4b 3e 43 f1 02 3f
       -0.13145325 -0.065725334 0.19839184 0.51149386
000020 ef c4 93 bc 43 92 39 be 47 d3 79 3e 47 bf ea 3e
       -0.018038241 -0.181222 0.24397002 0.45849058
000030 c9 8f e2 3d f1 03 2c bc a4 91 71 bd 7a 02 2c 3e
       0.11062581 -0.010498987 -0.058976784 0.1679782

fc2.weight f4 [16, 16]
000000 8c f2 cc 3d 5e b6 0c 3e c0 e1 c5 be fa 9a 4a be
       0.100072 0.13741443 -0.38648796 -0.19785681
000010 b0 75 83 3e 46 5a 3f 3e a1 a7 ea 3d ef 9d 6f 3d
       0.25675726 0.1868678 0.11457754 0.058500227
000020 14 59 b1 bd 74 c7 59 3e 3c 66 a7 be 96 2b e4 be
       -0.086595684 0.21267492 -0.32695186 -0.44564503
000030 0e 1c 2e 3e e6 cc da be cc f5 d4 3d 11 ad 5c bd
       0.1700289 -0.4273445 0.103984445 -0.053875986
000040 98 55 ad 3d 39 62 85 3e 87 48 fe bd 19 8a 4d be
       0.08463591 0.260515 -0.12416177 -0.20072211
000050 6d c9 7a be ee 8b 61 3e e4 52 c4 bd 56 8d 57 3d
       -0.244909 0.22026035 -0.09586123 0.052625023
000060 36 50 af 3e 8b f9 d6 3d 9c 26 af be a2 31 90 be
       0.34240884 0.10496815 -0.34209144 -0.28162867
000070 6b 36 5f 3e 32 c4 20 3d e3 bb b7 bd 0b 56 6e 3e
       0.21798103 0.039249606 -0.089713834 0.2327501
000080 80 e4 04 bf a4 74 4f 3e 17 e9 62 3e 53 06 b9 3d
       -0.51911163 0.20259339 0.22159229 0.090344094
000090 89 f2 ef be 1d 43 99 be 2b e0 ec bc 6f ae b4 3e
       -0.46864727 -0.29934016 -0.028915485 0.35289332
0000a0 be 1e 8f 3e 07 ef 9f 3c 17 14 e3 bb 03 59 2a 3e
       0.27953142 0.019523157 -0.006929885 0.16635518
0000b0 72 3c d2 bd 71 16 0c be 95 9c 7c 3e 01 76 6c 3d
       -0.10265435 -0.13680436 0.24669106 0.057729725
0000c0 54 0b 77 3d 0f 97 92 3e d8 15 8e be 7d 12 b5 bc
       0.060313538 0.28630874 -0.2775104 -0.022103542
0000d0 1b 1b 35 3e 7f cd d8 3d f2 4a 51 3e 00 f0 58 be
       0.17686121 0.1058607 0.20438746 -0.21185303
0000e0 a7 88 dc 3d af 61 a9 3e 95 cf ed be 1e 3b 15 bf
       0.10768252 0.3308234 -0.46447435 -0.5829333
0000f0 13 bb 92 3e 2d 28 9c be 87 c4 3e be 28 15 6e be
       0.2865835 -0.30499402 -0.18629657 -0.23250258
000100 0a 87 11 3e 3d 91 48 be b3 de ca bd f0 66 a2 3e
       0.1421167 -0.19586654 -0.09905758 0.3171916
000110 18 73 cb 3e 54 ec 9c 3e 60 9b 1a 3e b1 15 2c 3e
       0.39736247 0.30649054 0.15098333 0.1680515
000120 19 65 54 be 1b 65 40 be fe c7 40 3e ab 23 18 3e
       -0.2074169 -0.18788569 0.18826291 0.14857356
000130 a4 ac 18 3e 58 da c8 3e 0b 21 96 be 6c d2 29 be
       0.14909607 0.39229083 -0.29322085 -0.16584176
000140 38 66 87 3e 48 07 2e be f6 75 ff bd bc eb c0 bd
       0.26445174 -0.16994965 -0.12473671 -0.09419963
000150 10 87 ef 3e a8 42 a3 3e 81 9c be 3e 0a 8c 76 3d
       0.46782732 0.31886792 0.37228778 0.060192145
000160 40 d0 5f 3d 06 46 a6 3e 4e fc 81 bd d3 89 6b 3d
       0.054641962 0.324753 -0.063469514 0.057504486
000170 0d 16 39 3e 8c b8 c2 3d c3 24 50 3d bb 67 bd be
       0.18074818 0.09507856 0.05081631 -0.36993203
000180 16 06 0a be cd 87 cc 3e 0a 2f a7 be 95 0a 4b bd
       -0.13478884 0.39947358 -0.32653075 -0.04957064
000190 48 a9 c8 bc f1 0c 82 3e 5a 63 bb 3d d3 3e a6 bd
       -0.024494782 0.25400499 0.09149809 -0.081174515
0001a0 36 ef 84 3d 6c 0b bb 3d 00 02 25 be 23 90 38 be
       0.06490938 0.09133038 -0.16114044 -0.18023734
0001b0 79 71 ee bd ad 8b 97 be fe 98 bc 3c be 24 c3 3e
       -0.11642737 -0.29598752 0.023022171 0.3811397
0001c0 5a b8 65 be a3 49 89 bd ed 73 c6 3d 1d 5f c9 3e
       -0.22433606 -0.06703498 0.0969008 0.39330378
0001d0 c4 fb e8 bc 50 27 13 be 30 6c a8 3d d7 c2 c8 3e
       -0.028440364 -0.14370465 0.0822376 0.3921115
0001e0 53 96 c1 3d f9 69 6a be 83 2a 08 3f 5b b2 07 3f
       0.094525 -0.22891988 0.5318987 0.53006524
0001f0 b5 ee 2d be f9 66 43 3e 84 e9 06 3e 64 6d e9 bb
       -0.16985591 0.1908225 0.13175017 -0.007123636
000200 70 96 b2 3d f1 27 d1 bd 9f 29 b3 3e ed 2e bf 3e
       0.087201 -0.10212696 0.34992692 0.3734049
000210 91 c8 09 3e 38 f8 a1 3d ea 32 9c 3d d9 c3 3e 3e
       0.13455416 0.07908672 0.076268986 0.18629397
000220 eb de b4 bd ce 5e 54 be 38 29 9b 3e 5f 10 8f 3e
       -0.08831581 -0.2073929 0.30304885 0.27942178
000230 0a dd 8b 3d dc a7 1e 3e 0d 7a a8 3d 1a c6 b3 3c
       0.06829269 0.15493721 0.08226404 0.021945048
000240 35 4d 0e be 62 d5 bd 3e 7a 16 99 3d 3f 5e a7 bd
       -0.1389664 0.3707686 0.0747499 -0.08172273
000250 39 e8 ea bd a3 a6 f0 bd 7f 1e 6c be 51 f2 e4 3c
       -0.11470074 -0.117505334 -0.23058508 0.027947577
000260 37 6b e9 3e ea a9 8f be cf 0a 02 be c8 9d 53 3d
       0.4558961 -0.28059322 -0.12699436 0.051664144
000270 03 85 af bd c1 90 1a 3e 48 05 40 3e ae 45 9e 3e
       -0.08570292 0.15094282 0.18752015 0.30912536
000280 2d ee f2 bb a3 e7 a5 3e 26 71 93 be e5 8c a3 bd
       -0.0074136467 0.32403287 -0.28797263 -0.07985858
000290 12 bd 63 bd 53 85 a9 3e 34 fd 56 3e 0f 75 0a be
       -0.055600233 0.3310953 0.20995027 -0.13521217
0002a0 86 8b 4d be 9d a2 8c 3e f3 8d 0f bf 3d 24 1b bf
       -0.20072755 0.27467814 -0.5607597 -0.6060217
0002b0 2e e5 bc 3e 6e 82 67 be ec e5 a5 3d b6 14 37 3e
       0.368936 -0.22608349 0.08100495 0.17878994
0002c0 18 f8 cc 3e 06 07 f8 bc cc a5 a9 be 7b c0 c2 3d
       0.4003303 -0.030276787 -0.33134305 0.09509369
0002d0 11 b7 de 3e 26 d3 05 3e 8d 47 9a 3e 2c 04 12 3e
       0.43499044 0.13068828 0.30132714 0.14259404
0002e0 42 22 19 3d 21 a0 32 3e 3e 08 32 bd e6 16 b3 be
       0.037386186 0.17443897 -0.04346489 -0.34978408
0002f0 71 4a 0a 3f 85 e7 4c 3e 51 5c 4a be af 4a 89 be
       0.5401984 0.20010193 -0.19761778 -0.26814792
000300 74 83 6f 3d 9c 41 3f 3e bf 40 61 bd 5f ac e1 bd
       0.058474973 0.18677372 -0.054993387 -0.11019205
000310 81 92 9c 3d cb bd 78 3b f1 13 3b 3e 85 f1 04 be
       0.07645131 0.0037954922 0.18269326 -0.12982757
000320 83 36 3b 3e c9 1f ad bc 2b 45 80 3d cc d1 f7 3d
       0.18282513 -0.02113332 0.06263193 0.121005625
000330 0d 7a e3 3d 3f be 60 be 92 bb 71 be 2d 7b 17 3e
       0.11107264 -0.21947573 -0.23606709 0.14793082
000340 16 47 cf be a9 5c 97 3e 06 99 a0 3e 71 dc 41 3e
       -0.40483922 0.29562882 0.31366748 0.18931748
000350 b2 54 ba 3c 0c 02 7d be 65 62 52 be 4f dd ab 3e
       0.022745464 -0.24707812 -0.20545347 0.33567283
000360 d1 5c 8c 3e e5 28 d5 be 5a 4d 4a ba 2e 4c 67 3e
       0.27414563 -0.41632763 -0.0007717215 0.22587654
000370 a7 00 de be 96 27 10 3e fa 70 a4 3e 87 72 2d 3e
       -0.43359873 0.14077601 0.32117444 0.1693822
000380 38 71 8a be 16 b1 6f 3e f8 fa 6e 3d 0e 80 9f be
       -0.27039504 0.23407397 0.05834481 -0.31152385
000390 c3 f4 b7 be 1d f7 7c be 17 28 87 be 15 42 62 3e
       -0.35928926 -0.24703641 -0.26397774 0.22095521
0003a0 8e 95 89 3e 76 46 1d 3e c0 fc ae bd 4f 83 89 3e
       0.26871914 0.1535891 -0.08544302 0.26857993
0003b0 76 aa 54 3d f3 36 be bd c6 9a 73 3e 83 d3 d4 3e
       0.051920377 -0.092878245 0.2378951 0.4156762
0003c0 09 69 e9 3d ae 9c a1 be a3 e8 cc bd 09 18 c7 3e
       0.11396987 -0.3156485 -0.100053094 0.38885525
0003d0 ed 40 24 3d 63 3a 60 3d c1 0f 01 3e c6 47 4a 3e
       0.04010098 0.054743182 0.12603666 0.19753942
0003e0 1a f7 39 be 80 dc 5c be 94 d1 1b 3e 36 8b 13 3e
       -0.18160668 -0.21568489 0.15216666 0.14408574
0003f0 d5 7b a1 3e a0 ba 8e 3e d4 cc ec 3a 36 2a ba be
       0.3153979 0.2787676 0.0018066415 -0.3636033

fc2.bias f4 [16]
000000 d1 2d 3c 3e 7c d0 8c bd f0 56 47 3e 3d dc 09 3e
       0.18376853 -0.06875703 0.19466758 0.1346292
000010 77 7f 97 ba dc 13 15 3e ba ac bf 3d 89 56 8c 3e
       -0.0011558373 0.14558357 0.09359117 0.2740977
000020 d4 dc d6 bd 05 f9 82 3d 54 de a2 3d 34 0a 06 3d
       -0.10491338 0.06395153 0.07952562 0.032724574
000030 4d c4 59 3e 0a 46 83 3e 30 38 99 3e 43 3e 66 3e
       0.21266289 0.25639373 0.2992568 0.22484688

fc3.weight f4 [3, 16]
000000 d5 67 3c 3e 16 af b5 3e 59 d4 8c be 7a a7 cb 3e
       0.18398984 0.35485142 -0.27505758 0.39776212
000010 9a 64 71 be 46 2f 38 3e 6e ef 80 3e 16 de 89 be
       -0.23573533 0.17986783 0.2518267 -0.2692725
000020 18 af 0b bf 0d 22 1e be 3d 9a 6c 3e 9d 90 90 3e
       -0.54564047 -0.15442677 0.23105712 0.2823533
000030 92 3f e4 3d a5 cf a2 be 63 55 f4 3d fd 97 95 be
       0.111449376 -0.31799045 0.11930349 -0.2921752
000040 13 15 4a be 60 0c 50 3e b5 67 a5 3e ce 47 da be
       -0.19734602 0.2031722 0.32305685 -0.42632908
000050 20 97 a2 be f6 39 82 be f4 89 20 3e bf d3 ac 3e
       -0.31755924 -0.25434846 0.15677625 0.337553
000060 e3 65 58 be 8b 84 22 3e 98 f6 74 be 6d 22 d2 be
       -0.21132617 0.15870874 -0.23922193 -0.4104189
000070 10 18 05 3e e6 8d da 3e f0 a3 d1 3e ea 57 84 bd
       0.1299746 0.42686385 0.40945387 -0.06462081
000080 12 e4 da bd 60 dd bd be 09 bf a9 be 48 8c 40 be
       -0.10688032 -0.37082958 -0.3315356 -0.18803513
000090 7e 19 d6 3e 1d 69 85 3e a8 50 93 be ed 95 68 3e
       0.41816324 0.26056758 -0.28772473 0.22713442
0000a0 eb 15 03 3e 51 0d e0 be 77 88 c4 be c2 e9 ac 3e
       0.1280133 -0.4376016 -0.38385364 0.33772093
0000b0 8a c5 ba 3d 47 8b d8 bd 13 9b 3c be 99 3f c9 3e
       0.09119709 -0.1057344 -0.18418531 0.39306334

fc3.bias f4 [3]
000000 71 db b9 bd ac 76 6f 3e a8 96 1d 3d
       -0.09075058 0.23385113 0.038473755
