networks/wineNetwork.pt (torch, 4208 bytes, 4 tensors)

fc1.weight f4 [32, 12]
0	0x3eb85c05	0.36007705
1	0x3ea3dc88	0.3200419
2	0x3e406df6	0.18791947
3	0xbdb61438	-0.08890575
4	0x3cb35839	0.021892654
5	0xbd867180	-0.06564617
6	0xbeadde71	-0.33958772
7	0x3eaa8f1d	0.33312312
8	0x3d7afaf1	0.061274473
9	0x3ed728ef	0.42023417
10	0xbeaee67f	-0.3416023
11	0x3e603715	0.21896012
12	0xbeb5a824	-0.35479844
13	0xbd6c3473	-0.057667207
14	0xbe7002fc	-0.23438638
15	0x3dfd848b	0.12378796
16	0x3e9f7c61	0.3114958
17	0x3ea07ad7	0.3134372
18	0xbe2cea3f	-0.16886233
19	0x3e8600ee	0.26172584
20	0x3ee46d62	0.44614702
21	0xbf058b5a	-0.5216576
22	0x3c883b39	0.016629802
23	0x3e50974e	0.20370218
24	0xbe6cd2a1	-0.23127224
25	0x3e26a88a	0.1627523
26	0x3e7693ef	0.2407987
27	0x3ea4fd63	0.3222457
28	0xbe1202eb	-0.14258926
29	0x3caccde1	0.021094264
30	0xbe1730e8	-0.1476475
31	0x3e2a7efb	0.16650002
32	0x3dba1c9d	0.09087489
33	0xbd3997c2	-0.045310743
34	0xbe8e55c6	-0.27799815
35	0xbe8477aa	-0.25872546
36	0xbe74878d	-0.23879834
37	0xbd9c741d	-0.07639334
38	0xbe11a9b5	-0.14224894
39	0x3e72204b	0.23645131
40	0xbe01d722	-0.12679723
41	0x3de4b5ca	0.11167486
42	0xbe9705fe	-0.2949676
43	0xbe7e1239	-0.24811639
44	0xbeaa4422	-0.33255106
45	0x3e90d9bc	0.28291118
46	0x3c07744a	0.008267472
47	0x3ddd65c8	0.10810429
48	0x3d373fe2	0.044738658
49	0x3e1e1baa	0.1544024
50	0xbe915715	-0.2838675
51	0x3ed9eaa2	0.42561823
52	0xbe6ec76e	-0.23318264
53	0x3deee563	0.11664846
54	0xbd3cf967	-0.046136286
55	0xbd8fa8e7	-0.070146374
56	0x3d8fe5a3	0.070262216
57	0x3d144660	0.036199927
58	0xbdd9a336	-0.10626833
59	0x3e45488e	0.19265959
60	0xbe7629fe	-0.24039456
61	0xbe71d48e	-0.2361624
62	0x3e6d1958	0.23154199
63	0xbe001207	-0.12506877
64	0x3d9d1818	0.07670611
65	0xbe546751	-0.20742537
66	0xbe1d8564	-0.15382916
67	0x3e4f69da	0.20255223
68	0x3d9b9beb	0.07598098
69	0xbe3d93f6	-0.18513474
70	0xbec8f35b	-0.39248165
71	0xbe845444	-0.2584554
72	0xbe2130ed	-0.1574132
73	0xbce20c9a	-0.0275939
74	0xbe8d0b10	-0.27547503
75	0x3eab2fc2	0.33434874
76	0xbe95ccff	-0.29257962
77	0x3df9708f	0.12179672
78	0xbd8bcf64	-0.06826666
79	0x3eb6e7e2	0.35723788
80	0x3d4724fc	0.048619255
81	0xbde25458	-0.110512435
82	0x3dbbe470	0.0917443
83	0x3d1a9530	0.037739933
84	0x3eaf7b5a	0.34273797
85	0x3cce82f6	0.025208931
86	0x3ea31670	0.31853056
87	0xbda51e82	-0.080624595
88	0x3d87d579	0.066325136
89	0xbeaad5ee	-0.3336634
90	0xbed37edd	-0.41307727
91	0xbd937fd2	-0.07202114
92	0x3e458047	0.19287215
93	0x3ed641a5	0.41846958
94	0xbc005db2	-0.007834839
95	0xbef64bcd	-0.48104706
96	0xbeacf565	-0.3378097
97	0xbcddd5f7	-0.027079565
98	0x3cc3509a	0.023842145
99	0xbd0d7d65	-0.034543414
100	0xbe470cc3	-0.19438462
101	0x3e450ee3	0.1924396
102	0xbe23f161	-0.16010047
103	0x3d8252ca	0.06363447
104	0xbe6282de	-0.22120234
105	0xbe6449ff	-0.22293852
106	0xbe322ccd	-0.17399903
107	0xbdcefe4f	-0.10107099
108	0xbeafa91f	-0.34308717
109	0x3ebcaa90	0.3684888
110	0x3e87324a	0.26405555
111	0x3eb9e03b	0.36303887
112	0x3e7a2caa	0.244311
113	0x3c386569	0.011254647
114	0xbe097d15	-0.13426621
115	0x3e3927cc	0.18081588
116	0xbaabebe6	-0.0013116568
117	0x3e43f2b0	0.19135547
118	0xbde39cbc	-0.11113879
119	0xbd3f5bb3	-0.04671831
120	0x3e7291a6	0.23688373
121	0xbd7dab48	-0.061930925
122	0x3ec7058c	0.3887142
123	0x3e09efac	0.13470334
124	0x3e09ab11	0.13444163
125	0x3e7bac67	0.24577485
126	0xbe3e5822	-0.18588307
127	0x3e278dc2	0.1636267
128	0xbe8ee777	-0.2791097
129	0x3ee4dd71	0.44700196
130	0xbdf002ff	-0.117193215
131	0xbe8ae2f5	-0.2712628
132	0xbe9fc122	-0.31202036
133	0xbe32bf8a	-0.17455879
134	0xbdfcf1b8	-0.12350792
135	0xbe7fbfc1	-0.24975492
136	0xbeabfda0	-0.33591938
137	0xbd7a48ec	-0.0611047
138	0x3e3b5f65	0.18298109
139	0xbe9875bf	-0.29777333
140	0xbdbe0fe6	-0.09280376
141	0x3e5e8be2	0.21733049
142	0xbe4668f7	-0.19375978
143	0xbdee30c5	-0.11630396
144	0xbec2b987	-0.3803217
145	0xbe675705	-0.22591789
146	0xbd2bfd26	-0.041989468
147	0x3eadc8d5	0.33942285
148	0x3e45a064	0.19299465
149	0xbe31ca3b	-0.17362301
150	0x3d4aca0a	0.049509086
151	0x3e752901	0.23941423
152	0xbda803cc	-0.08203849
153	0xbefb5c82	-0.49094015
154	0x3edf4cd2	0.43613297
155	0x3e899af7	0.2687604
156	0xbe0b9497	-0.13630901
157	0x3e2e6f66	0.17034683
158	0x3bd1c65f	0.0064018215
159	0xbd5b3599	-0.05351791
160	0xbcf55bd6	-0.029951017
161	0x3e38b9e0	0.18039656
162	0x3eeae3fd	0.45877066
163	0xbd501ca5	-0.050808568
164	0x3bb6871d	0.005570306
165	0x3e466765	0.1937538
166	0x3e9e926d	0.3097109
167	0x3ef5fff6	0.48046845
168	0x3d343ea1	0.04400504
169	0x3dc29147	0.09500366
170	0x3e2db174	0.16962224
171	0x3e4fbb2c	0.20286244
172	0xbe24438d	-0.16041394
173	0x3b9306fd	0.004486917
174	0x3ef4c625	0.47807422
175	0xbd7394ee	-0.059468202
176	0x3e445e3f	0.19176577
177	0xbe879e5c	-0.26488006
178	0x3dd00946	0.10158019
179	0x3edeac13	0.43490657
180	0x3ee04f1d	0.4381036
181	0x3de734e6	0.112893865
182	0xbca2aac4	-0.019856818
183	0xbcd33f36	-0.025786977
184	0x3e1f0658	0.15529764
185	0x3dac495e	0.08412431
186	0x3e951262	0.29115587
187	0xbd20e42e	-0.03928011
188	0xbc908420	-0.017641127
189	0x3ee5c71a	0.44878465
190	0xbe1bee9a	-0.15227738
191	0x3deefa89	0.116688795
192	0x3ddc49ee	0.107562885
193	0x3ef0b1cc	0.47010648
194	0x3e8f2063	0.27954397
195	0x3eb82ba1	0.35970786
196	0xbdc8e7b5	-0.098098196
197	0x3d238ad5	0.039927322
198	0xbe124f9f	-0.14288186
199	0xbd30dce0	-0.043179393
200	0xbe96fc04	-0.29489148
201	0x3e1ab18a	0.15106788
202	0xbe3ae067	-0.18249665
203	0xbe9d1148	-0.30677247
204	0xbd329aea	-0.04360477
205	0xbe16d9fa	-0.14731589
206	0x3d913f97	0.07092207
207	0xbd2ce29f	-0.04220831
208	0xbc5b4ad9	-0.013384544
209	0x3eca32a1	0.39491752
210	0x3e65a44f	0.2242596
211	0x3aa43fce	0.0012531222
212	0x3eabcbbb	0.33553872
213	0xbe227557	-0.15865074
214	0x3bdf83d0	0.006821133
215	0x3ec63a4f	0.3871636
216	0xbde220af	-0.1104139
217	0xbe5bd848	-0.21469223
218	0x3e30fb44	0.1728335
219	0xbd5389c0	-0.05164504
220	0x3e83610d	0.2565998
221	0xbd6fcb1e	-0.058543317
222	0xbdc401a2	-0.09570624
223	0x3d69e0d6	0.057099186
224	0x3e02a7ed	0.12759371
225	0xbd6edcf7	-0.058316197
226	0x3c5d3cfb	0.013503308
227	0xbdb68134	-0.08911362
228	0x3ea685bb	0.32523903
229	0xbd9e4e5f	-0.07729792
230	0x3de47fd2	0.11157192
231	0xbe2f9121	-0.17145206
232	0x3d22cc0f	0.039745387
233	0x3dcfeaa4	0.10152176
234	0xbe8e6776	-0.2781331
235	0x3e9001fd	0.28126517
236	0x3d1073dd	0.035266746
237	0x3e0dcf18	0.13848531
238	0xbd94de16	-0.07268922
239	0xbe08fc75	-0.13377555
240	0xbe3d736c	-0.18501061
241	0xbd862a1a	-0.06550999
242	0xbc372a0b	-0.011179457
243	0x3ebab519	0.36466292
244	0xbe0aafa6	-0.13543567
245	0xbddcbc27	-0.10778075
246	0x3e2a9b68	0.16660845
247	0x3db8334b	0.08994158
248	0x3e145da4	0.14488846
249	0xbdc1e9ad	-0.09468398
250	0x3ee676bd	0.45012465
251	0x3eb015c9	0.3439162
252	0xbe6aef9e	-0.22942969
253	0x3ec6e452	0.3884607
254	0xbcab6fb6	-0.020927291
255	0x3ea21ef5	0.31664243

fc1.bias f4 [32]
0	0xbc81b08f	-0.01583126
1	0x3e5db551	0.21651198
2	0x3eccc64d	0.3999504
3	0xbe076ee1	-0.1322589
4	0xbcaa7e0d	-0.020812059
5	0xbe3e3587	-0.18575107
6	0x3e723e37	0.23656546
7	0x3e9a26c2	0.30107695
8	0xbdea5d4c	-0.11443576
9	0xbdc1d56f	-0.09464537
10	0x3ddf665c	0.109081954
11	0x3d4ace46	0.049513124
12	0x3e8eeace	0.27913517
13	0xbcec2510	-0.028826267
14	0xbdb73048	-0.08944756
15	0xbccfbbb7	-0.025358064
16	0xbd358779	-0.04431865
17	0x3e7156ef	0.23568319
18	0x3d5eaa28	0.054361492
19	0x3e801bfc	0.2502135
20	0xbda2a2f4	-0.07941237
21	0x3df42193	0.11920466
22	0x3ebcac0d	0.36850014
23	0x3e760018	0.24023473
24	0xbde9574f	-0.11393606
25	0x3ea30763	0.31841573
26	0x3e632d84	0.22185332
27	0x3e84d3e5	0.25942913
28	0xbdbc3860	-0.0919044
29	0x3dd92adb	0.10603877
30	0x3e0b3cf8	0.13597476
31	0x3e51d796	0.20492396

fc2.weight f4 [3, 32]
0	0xbc867d8e	-0.016417291
1	0xbe86e5b4	-0.26347125
2	0xbe856468	-0.26053166
3	0xbd677cc3	-0.056515466
4	0xbe78550b	-0.24251191
5	0xbe2b48bf	-0.16726969
6	0xbeaf999e	-0.34296888
7	0xbe093591	-0.1339934
8	0xbe17099f	-0.14749764
9	0xbd746dd5	-0.059675056
10	0x3d510920	0.051034093
11	0xbd53afe9	-0.051681433
12	0xbe37f5e5	-0.17964895
13	0x3e9d3cda	0.3071049
14	0x3e7b170f	0.24520515
15	0x3e237b35	0.15964969
16	0xbe96cef5	-0.2945477
17	0x3e1de1e4	0.15418202
18	0xbd3bd32b	-0.045855682
19	0xbd586184	-0.052827373
20	0xbd25ae35	-0.04044934
21	0xbe8e0ee7	-0.27745745
22	0x3d57deba	0.052702643
23	0x3dfc8c78	0.1233148
24	0x3e32ba61	0.1745391
25	0xbebb52e3	-0.36586675
26	0x3e96f115	0.29480806
27	0xbe6a9977	-0.22910105
28	0x3e7cbc1e	0.24681136
29	0xbea4cfe8	-0.3218987
30	0x3e69515b	0.22784941
31	0x3e918e4c	0.28428876
32	0xbeb07853	-0.344668
33	0x3e4b1e79	0.19835843
34	0x3e63e761	0.22256233
35	0xbd834f70	-0.06411636
36	0x3e306aa1	0.17228176
37	0xbe2eaca2	-0.17058042
38	0x3ed49023	0.41516218
39	0xbe19fe97	-0.15038525
40	0xbe0043e5	-0.125259
41	0x3e16cebf	0.14727305
42	0xbe564b21	-0.20927097
43	0xbe2dff5b	-0.16991942
44	0x3ecc8482	0.39944845
45	0x3e0ffb44	0.14060694
46	0x3e4d415c	0.20044464
47	0xbee94297	-0.45558617
48	0xbe8e66e3	-0.2781287
49	0x3e63484f	0.22195552
50	0x3e7b5039	0.24542321
51	0xbe032e4c	-0.1281063
52	0x3e8ccde1	0.27500823
53	0x3d63f298	0.055651277
54	0x3e507925	0.20358713
55	0xbc39cbd6	-0.011340102
56	0xbde10442	-0.1098714
57	0x3e85663c	0.2605456
58	0x3e276c14	0.16349822
59	0x3ec073c8	0.37588334
60	0xbe8c530c	-0.2740711
61	0xbdfe1b20	-0.124075174
62	0xbdce736a	-0.10080607
63	0xbd8921c5	-0.06695894
64	0x3eb96ce0	0.36215878
65	0xbedf3d27	-0.43601343
66	0x3e979025	0.2960216
67	0x3e1a925d	0.15094896
68	0xbc094016	-0.008377096
69	0xbc99f391	-0.0187929
70	0xbd275b67	-0.040858652
71	0x3e687b3a	0.22703257
72	0xbe161dfd	-0.14659877
73	0x3e7eedd1	0.24895407
74	0x3e6efa65	0.23337705
75	0x3d690e99	0.056898687
76	0xbea413f7	-0.32046482
77	0xbeb639c7	-0.35590956
78	0xbed70473	-0.41995582
79	0x3c4ebbe2	0.012618037
80	0x3e92d06f	0.28674647
81	0xbe65e2ec	-0.22449845
82	0xbd598aad	-0.053110767
83	0x3e139d30	0.14415431
84	0xbe9ee764	-0.31035912
85	0x3e154764	0.14578015
86	0x3d7278b8	0.059197158
87	0x3d9df964	0.07713583
88	0x3e558265	0.20850523
89	0x3df9525a	0.121739104
90	0xbe18ba4b	-0.14914815
91	0xbe291869	-0.16513218
92	0x3d9283f7	0.071540765
93	0x3daac5c6	0.083385035
94	0xbca62f95	-0.02028636
95	0xbde9f2c2	-0.114232555

fc2.bias f4 [3]
0	0xbe1ddb14	-0.15415603
1	0x3d683924	0.05669512
2	0x3e2ae67a	0.16689482
